deeplearning_frameworks/outlier_detection_application/artifacts/forecast_lstm_ae.pth (torch, 555521 bytes, 28 tensors)

encoder_lstm.weight_ih_l0 f4 [256, 3]
-0.09547688 0.02980301 0.06234088 0.0815959 -0.029082824 -0.09798383 0.053511813 0.11009426
0.034590356 -0.054864954 -0.08811607 0.08999272 -0.015519988 0.21227774 0.17730196 0.0012334457
0.11613895 0.034548305 0.07784418 -0.17955297 0.04825562 0.01838782 0.13682534 0.095441304
0.04733683 -0.037576593 0.19723833 -0.07051505 -0.0018709152 0.008250391 -0.053991325 0.11320222
0.10854064 -0.029677108 0.15905987 -0.052832097 -0.07899695 0.031594448 -0.042922087 -0.09258539
-0.013532878 -0.06801029 0.10188437 0.2378566 0.21582179 0.09534109 0.0386447 0.065754205
-0.040940285 0.18361197 -0.018714542 0.11369978 0.20504196 0.15749732 0.038371637 -0.00882004
0.15443444 0.04026729 0.08771176 0.039409384 0.064094946 0.07390846 0.080290325 0.10393675
0.082151376 0.1336883 0.04139153 0.023822151 0.12433221 0.017389726 -0.06775171 -0.013046351
0.019560467 -0.059221376 -0.027836602 0.08202395 0.13218914 -0.046459697 0.0014474789 0.09708739
0.018071596 0.035715852 0.07736288 0.00060101826 -0.038082127 -0.05957089 0.08079353 0.009105065
0.08530476 -0.0045260736 0.033767246 0.17169559 0.08421654 -0.1181999 -0.010590473 -0.015006921
-0.028507607 0.15868759 0.16462265 0.11706912 0.21379966 0.047467433 -0.11764015 -0.09480091
-0.066391625 0.028146757 0.15973243 0.16686846 -0.037374105 -0.076931246 -0.048770193 -0.018829616
0.030677356 0.011107207 0.03429366 0.11268412 0.10969988 -0.06334444 -0.11463873 0.01836139
-0.029514194 -0.12415226 -0.0149983 -0.0070073423 0.032439068 -6.9089656e-05 -0.040485766 -0.072453566
0.014854842 -0.008049718 0.044831213 -0.003402085 0.0009394848 0.10652595 0.123679675 -0.09320995
0.08628062 0.015188325 -0.08030069 0.12222061 -0.040755857 -0.04628739 -0.036506142 -0.07487867
0.11085366 -0.06929729 0.13919616 -0.12280653 0.025674844 0.033813268 0.0834328 0.0438121
0.10261694 0.0051998957 0.091625676 0.017208908 0.032715097 0.024492208 -0.02951631 0.08980588
-0.09721137 -0.028142845 -0.039541513 0.051694125 -0.031463932 0.016258895 0.09454732 0.15345563
0.029020749 0.17365527 0.00020231564 0.049200796 -0.09637999 0.08791362 0.021854151 0.044140033
-0.052112166 -0.06681024 -0.004692001 -0.12650682 -0.08802257 -0.030294338 0.07554966 0.05657596
0.11839852 0.044489305 0.07500287 -0.20129335 -0.03545119 -0.027913323 0.03689142 0.14498515
-0.11360318 0.02413183 -0.058923077 -0.020327142 -0.016674254 0.06117422 -0.07223302 0.19206625
0.0011405054 0.06896304 -0.11966622 0.048630558 -0.050598517 0.12899673 0.060104143 0.06784028
0.13648173 -0.0525627 0.0029156771 -0.15153961 0.09064803 0.027357114 0.044771034 0.024472987
0.10199118 -0.08401937 0.21574166 0.06959291 0.15724964 0.09318471 -0.1199086 0.16374245
0.014204177 -0.055550557 0.031998772 0.10422513 0.084138505 0.11193759 0.11210686 -0.12617788
0.098960996 -0.05283389 0.09880997 0.086663574 0.08932935 0.07435232 0.16571027 -0.023882367
-0.03905406 0.1640658 0.18378462 0.0231466 0.15027574 0.076703504 0.04622531 0.17569268
-0.0062966463 0.041640114 0.07173109 0.12362288 -0.027179772 -0.003609079 0.110546954 0.078512534
00000000: 6289 c3bd 7125 f43c 2759 7f3d c01b a73d
00000010: 1a3f eebc bfab c8bd 342f 5b3d 1979 e13d
00000020: 9eae 0d3d 13ba 60bd 3376 b4bd 1a4e b83d
00000030: 8c47 7ebc 565f 593e a58e 353e 92ab a13a
00000040: 42da ed3d 8682 0d3d c56c 9f3d bcdc 37be
00000050: afa7 453d 0ea2 963c f11b 0c3e bb76 c33d
00000060: 44e4 413d eae9 19bd d8f8 493e 326a 90bd
00000070: 7f39 f5ba a62c 073c 0226 5dbd 91d6 e73d
00000080: 8e4a de3d 681d f3bc 97e0 223e 7866 58bd
00000090: 27c9 a1bd 2e69 013d 12cf 2fbd 699d bdbd
000000a0: 01b9 5dbc fb48 8bbd c1a8 d03d ae90 733e
000000b0: 6300 5d3e 3042 c33d e849 1e3d 24aa 863d
000000c0: 00b1 27bd c704 3c3e 3d4f 99bc 6edb e83d
000000d0: 85f6 513e fa46 213e 942b 1d3d ee81 10bc
000000e0: 1024 1e3e 50ef 243d 39a2 b33d bc6b 213d
000000f0: 3644 833d 525d 973d 416f a43d cadc d43d
00000100: fb3e a83d 96e5 083e 2a8a 293d ac26 c33c
00000110: e3a1 fe3d e674 8e3c 69c1 8abd 5dc0 55bc
00000120: 463d a03c 1d92 72bd 9609 e4bc 2cfc a73d
00000130: 975c 073e 864c 3ebd 55b9 bd3a c1d5 c63d
00000140: e20a 943c c94a 123d 6e70 9e3d a78d 1d3a
00000150: 01fc 1bbd 9b00 74bd 1477 a53d 692d 153c
00000160: 43b4 ae3d 754f 94bb 864f 0a3d f8d0 2f3e
00000170: b979 ac3d ca12 f2bd aa83 2dbc 97df 75bc
00000180: c988 e9bc 007f 223e d792 283e efc1 ef3d
00000190: 4cee 5a3e 366d 423d 52ed f0bd fb26 c2bd
000001a0: 55f8 87bd 0794 e63c e690 233e 91df 2a3e
000001b0: 9715 19bd 218e 9dbd 41c3 47bd 9140 9abc
000001c0: 144f fb3c 01fb 353c 8277 0c3d efc6 e63d
000001d0: 55aa e03d bbba 81bd b6c7 eabd a06a 963c
000001e0: c0c7 f1bc 8a43 febd 6ebb 75bc d99d e5bb
000001f0: d4de 043d 3ae4 90b8 67d4 25bd 8962 94bd
00000200: b961 733c f7e2 03bc efa0 373d 84f5 5ebb
00000210: c247 763a 472a da3d c54b fd3d dce4 bebd
00000220: e5b3 b03d 74d8 783c b074 a4bd cd4e fa3d
00000230: 9def 26bd d997 3dbd 7787 15bd fd59 99bd
00000240: 3e07 e33d bdeb 8dbd 7089 0e3e fd81 fbbd
00000250: 0d54 d23c c87f 0a3d d1de aa3d 5174 333d
00000260: d528 d23d e363 aa3b 3ea6 bb3d b2f9 8c3c
00000270: 4400 063d e2a3 c83c 30cc f1bc 25ec b73d
00000280: c116 c7bd d38b e6bc 48f6 21bd 38bd 533d
00000290: 53e0 00bd 6031 853c 06a2 c13d 7923 1d3e
000002a0: ecbc ed3c b0d2 313e b124 5439 c686 493d
000002b0: df62 c5bd 0e0c b43d 7a07 b33c 2ecc 343d
000002c0: 9173 55bd cfd3 88bd 5bbf 99bb 018b 01be
000002d0: 2d45 b4bd d52b f8bc c8b9 9a3d 32bc 673d
000002e0: ec7a f23d 6b3a 363d 1b9b 993d d81f 4ebe
000002f0: 4435 11bd 7baa e4bc 751b 173d fd76 143e
00000300: c9a8 e8bd 1eb0 c53c 5359 71bd 1b85 a6bc
00000310: 7298 88bc d291 7a3d e8ee 93bd 04ad 443e
00000320: 037d 953a 7f3c 8d3d 9013 f5bd d630 473d
00000330: 6440 4fbd b817 043e c32f 763d d8ef 8a3d
00000340: dec1 0b3e fc4b 57bd f214 3f3b 332d 1bbe
00000350: ada5 b93d 071c e03c d561 373d 937b c83c
00000360: c0e0 d03d 5912 acbd 62eb 5c3e ba86 8e3d
00000370: 0d06 213e a0d7 be3d a492 f5bd 1aac 273e
00000380: a3b8 683c fb88 63bd 2511 033d fc73 d53d
00000390: cf50 ac3d 893f e53d 4898 e53d c634 01be
000003a0: 10ac ca3d 5968 58bd e25c ca3d ac7c b13d
000003b0: 4ef2 b63d 0746 983d f4af 293e f4a4 c3bc
000003c0: 26f7 1fbd dd00 283e 0932 3c3e f09d bd3c
000003d0: e2e1 193e ba16 9d3d c056 3d3d c8e8 333e
000003e0: 1954 cebb d38e 2a3d c0e7 923d fe2d fd3d
000003f0: 1da8 debc 4c86 6cbb 7166 e23d 2ecb a03d

encoder_lstm.weight_hh_l0 f4 [256, 64]
0.01982275 -0.064408064 -0.022095814 0.004321522 0.09596841 0.059442878 -0.097746596 0.025990034
-0.049134012 -0.033480354 -0.11373093 0.044689316 -0.07148627 0.14013389 0.09785634 -0.10192366
-0.124225184 0.016942343 -0.028314406 0.035998538 -0.15265153 0.0498288 -0.09536197 -0.06442583
-0.08144031 0.06886109 -0.016814148 -0.105397135 -0.06765406 -0.07150441 -0.106981054 0.026546001
0.005764055 0.0057270336 -0.048421472 -0.009581763 -0.13990952 -0.0807939 0.027379265 0.10644642
-0.03826057 0.07270582 -0.07293 -0.07363239 -0.09538361 0.109196015 0.113359824 -0.017336348
0.088309266 0.11666867 0.06673884 0.06817937 -0.10628571 -0.11100721 -0.103700876 0.05516405
-0.11951837 -0.09494266 -0.06255013 -0.116620556 -0.009699006 0.032816928 0.012118412 0.072665244
-0.05068529 -0.048029844 0.097302824 0.09474877 -0.007771103 -0.09403937 -0.07635933 0.009810553
0.016422028 0.061046693 -0.051813852 -0.106462896 -0.10872872 -0.033745598 0.043028623 -0.06300453
-0.086980425 0.03435687 -0.09661405 -0.09912612 -0.09666796 -0.029132774 0.095974356 0.05122317
-0.0016507924 0.031189224 0.057824563 0.00041513657 -0.09517126 -0.09360785 -0.0882346 0.01014646
-0.12625675 0.012991303 -0.0337277 0.121269375 0.1165413 0.07473202 0.002555939 -0.032585002
0.038997337 -0.08822212 -0.06692525 -0.012702651 -0.030084243 -0.109822065 0.050942015 0.09820426
-0.052450273 0.030207787 -0.010718552 -0.0054390146 0.011680998 0.102958135 0.030244622 -0.114968084
-0.05279059 0.0627455 0.043546002 -0.010124916 -0.013076233 -0.044392604 -0.0703869 -0.06845919
0.0058409637 0.039452784 0.12110299 -0.039667677 0.044735085 0.09972162 0.053084727 -0.011927946
-0.021073747 0.033898108 -0.08402525 -0.0038479404 -0.045543857 0.097267985 0.18972956 0.039493173
0.15557311 -0.00529221 0.08811676 0.12968092 0.00086651667 -0.061759137 -0.040208563 -0.014517762
0.009224612 -0.12641786 0.057941914 -0.07705646 -0.03360005 -0.07564403 -0.06099782 -0.12074157
-0.10933872 0.08107116 0.077158436 0.1357398 -0.07742346 0.068534926 -0.091621935 -0.10750976
0.0059091193 -0.08837679 -0.1108261 -0.09594715 -0.10469248 0.09781854 0.08994776 -0.04705234
-0.048358236 -0.121160194 -0.09657247 -0.06499789 0.05686992 0.0367144 -0.048586223 0.0126208095
-0.06511089 -0.12550065 0.010268782 -0.070561536 0.064486384 0.08936188 -0.076067336 -0.059301633
0.054671027 -0.12147632 0.09846581 -0.06143316 0.04825877 -0.10975428 -0.08770696 0.027433025
0.09119727 0.05867676 0.09549339 0.016968286 -0.0022898295 0.033136327 -0.0778652 -0.004177693
-0.14189705 -0.17879549 0.09367755 -0.08100341 0.105707824 -0.0037740464 0.024494901 0.10528781
-0.06559854 -0.01114935 0.0065207984 0.05683398 -0.12632886 0.038789254 -0.060047023 0.022192985
0.116527125 -0.06597179 9.730256e-05 -0.01965259 0.105612375 0.06462336 0.045554176 -0.070695564
-0.06265382 0.10947146 0.080975965 0.07010805 -0.07982673 0.1069667 -0.021749223 0.07429027
0.08094841 0.02034006 -0.037380453 0.123151 -0.053220112 0.07843607 -0.11522842 0.032297924
-0.11736433 -0.04837975 0.057735067 -0.09291242 -0.13101475 0.10065902 0.0750286 -0.023319887
00000000: 5263 a23c 60e8 83bd 4802 b5bc 8e9b 8d3b
00000010: 168b c43d 607a 733d 5e2f c8bd 0de9 d43c
00000020: bf40 49bd b222 09bd c3eb e8bd 250c 373d
00000030: 6567 92bd 427f 0f3e e868 c83d 5abd d0bd
00000040: c669 febd abca 8a3c 9df3 e7bc 3473 133d
00000050: af50 1cbe 4919 4c3d 234d c3bd b1f1 83bd
00000060: 2dca a6bd 0b07 8d3d d3bd 89bc 74da d7bd
00000070: 368e 8abd e770 92bd e218 dbbd 0077 d93c
00000080: 66e0 bc3b d7a9 bb3b 9855 46bd d4fc 1cbc
00000090: 7144 0fbe 4677 a5bd 7b4a e03c 9500 da3d
000000a0: 1eb7 1cbd cae6 943d 535c 95bd 94cc 96bd
000000b0: 7b58 c3bd 29a2 df3d 3229 e83d f504 8ebc
000000c0: 7ddb b43d fcef ee3d 5fae 883d a0a1 8b3d
000000d0: 53ac d9bd c057 e3bd 2061 d4bd b3f3 613d
000000e0: 0cc6 f4bd 4c71 c2bd 481a 80bd c2d6 eebd
000000f0: 94e8 1ebc 0b6b 063d 4e8c 463c 84d1 943d
00000100: 619b 4fbd f1ba 44bd b446 c73d a50b c23d
00000110: bda4 febb b797 c0bd 4862 9cbd 71bc 203c
00000120: 7d87 863c 190c 7a3d c33a 54bd 3809 dabd
00000130: 2aad debd d338 0abd c83e 303d 8508 81bd
00000140: cb22 b2bd cab9 0c3d 96dd c5bd a302 cbbd
00000150: daf9 c5bd dba7 eebc 348e c43d 63cf 513d
00000160: 675f d8ba 8b80 ff3c 73d9 6c3d b0a6 d939
00000170: 26e9 c2bd 79b5 bfbd 58b4 b4bd 563d 263c
00000180: 7349 01be 79d9 543c 0f26 0abd 145c f83d
00000190: 35ad ee3d 1a0d 993d 8a81 273b da77 05bd
000001a0: acbb 1f3d cdad b4bd 1b10 89bd c81e 50bc
000001b0: 3b73 f6bc 64ea e0bd 93a8 503d 511f c93d
000001c0: 19d6 56bd 5276 f73c de9c 2fbc c339 b2bb
000001d0: a861 3f3c b7db d23d 92c3 f73c 6374 ebbd
000001e0: f23a 58bd b680 803d 4b5d 323d fae2 25bc
000001f0: b23d 56bc 05d5 35bd 0227 90bd 5534 8cbd
00000200: 8e65 bf3b 3e99 213d d804 f83d 937a 22bd
00000210: 233c 373d d93a cc3d 5f6f 593d 6e6d 43bc
00000220: daa2 acbc bed8 0a3d 6e15 acbd ba2d 7cbb
00000230: 328c 3abd 7034 c73d 7748 423e 98c3 213d
00000240: 8f4e 1f3e 466a adbb 8f76 b43d 13cb 043e
00000250: f326 633a 26f7 7cbd bcb1 24bd e8db 6dbc
00000260: d422 173c af73 01be 8054 6d3d c7cf 9dbd
00000270: 35a0 09bd 42eb 9abd dad8 79bd 5b47 f7bd
00000280: fbec dfbd a308 a63d 3e05 9e3d 60ff 0a3e
00000290: 3190 9ebd 0a5c 8c3d 48a4 bbbd 142e dcbd
000002a0: 49a1 c13b e4fe b4bd cbf8 e2bd f07f c4bd
000002b0: 0369 d6bd 1655 c83d 8836 b83d f4b9 40bd
000002c0: 4913 46bd d622 f8bd cac7 c5bd 9d1d 85bd
000002d0: 6ff0 683d d761 163d 5902 47bd 83c7 4e3c
000002e0: dc58 85bd 3e83 00be 653e 283c 9182 90bd
000002f0: 7011 843d 5d03 b73d 31c9 9bbd 45e6 72bd
00000300: baee 5f3d 94c8 f8bd 71a8 c93d 56a1 7bbd
00000310: fdaa 453d dac6 e0bd b59f b3bd 39bb e03c
00000320: a2c5 ba3d 0b57 703d 0a92 c33d 1301 8b3c
00000330: f710 16bb f5b9 073d ca77 9fbd 07e5 88bb
00000340: 764d 11be 2a16 37be 04da bf3d 1ee5 a5bd
00000350: 587d d83d fe55 77bb 88a9 c83c 23a1 d73d
00000360: 8758 86bd c3ab 36bc 6cac d53b bfca 683d
00000370: 5a5c 01be 7be1 1e3d def3 75bd 10ce b53c
00000380: c6a5 ee3d 381c 87bd ea0e cc38 78fe a0bc
00000390: 4d4b d83d 4159 843d 0497 3a3d d6c8 90bd
000003a0: a550 80bd 9332 e03d bad6 a53d cf94 8f3d
000003b0: 327c a3bd 5b11 db3d 6d2b b2bc 7f25 983d
000003c0: 48c8 a53d 33a0 a63c 3f1c 19bd 9736 fc3d
000003d0: 55fd 59bd 17a3 a03d e1fc ebbd d44a 043d
000003e0: b65c f0bd d829 46bd 9b7b 6c3d de48 bebd
000003f0: bb28 06be 5126 ce3d 98a8 993d 5909 bfbc

encoder_lstm.bias_ih_l0 f4 [256]
-0.026465815 -0.017548788 0.11339666 0.015344853 0.13026385 0.014560253 -0.04641291 -0.004668687
0.08524512 -0.06544306 0.040152967 0.09832762 0.061259672 0.0728851 0.19052188 0.007050359
0.026133267 0.008391156 -0.11070033 -0.100301065 -0.021495758 -0.07505788 -0.0753726 0.00939768
-0.08836976 -0.11882815 -0.07363424 0.062846325 0.015843237 -0.15943941 -0.095840245 0.029867373
0.0878873 0.0520519 0.04049892 -0.013971592 0.054234028 0.048853237 -0.041503605 0.03896944
-0.049655594 0.037795644 -0.14097369 -0.07476944 -0.08389133 -0.08174188 0.11827459 -0.068728596
0.049992032 -0.022306887 0.014524133 -0.06931351 -0.086845174 -0.12513915 -0.012765124 -0.007263486
-0.13673438 0.104005285 0.019712565 -0.054480728 -0.045581304 0.08882648 0.026129393 -0.10155212
0.07438672 0.101465784 0.025166383 0.08289932 -0.09532194 -0.008179964 0.11362401 -0.11617622
-0.055606492 0.016395438 0.027042534 0.015717305 -0.04675789 0.09782589 0.15124618 -0.13401125
-0.085870594 0.15229669 -0.056336053 0.0073954198 0.03089681 0.034780443 -0.06120612 -0.09763204
-0.117481366 0.039025173 -0.006227467 -0.06304999 -0.11250324 0.02953917 0.024250131 -0.13824211
-0.030733388 -0.010877881 -0.023762288 0.029175572 0.03499104 -0.13324636 0.035079747 0.041553326
-0.0556394 0.080956504 0.10181966 0.014467598 0.10844413 0.016494764 -0.08160928 0.06741443
-0.0527629 -0.111237094 -0.11683118 -0.0021624707 0.097218074 -0.06831571 -0.005367264 0.11415722
0.060619585 0.09803666 0.03298177 -0.07945468 0.0043730703 -0.14013654 -0.08958528 -0.06713816
0.09458945 -0.0027337435 -0.039693195 0.07941972 -0.057827067 0.056126915 0.11475575 -0.07852058
0.10120846 0.053735927 -0.04475014 0.053920254 -0.042340577 -0.018798547 -0.10849098 -0.10219714
-0.046672273 -0.14599799 0.006746962 0.052327722 -0.08164845 -0.058134627 0.025660187 -0.057877343
0.017227963 -0.08358515 0.0030782155 0.15349193 -0.031598464 0.09650667 -0.07528662 -0.03638284
-0.0069999443 0.07579189 -0.08517387 -0.05250621 -0.109534286 0.014223204 -0.08498097 -0.08357961
-0.06409871 0.011727681 0.06295916 0.0022749684 -0.069429085 0.112272814 -0.03677128 0.023896579
-0.072728 -0.0049490095 -0.065664425 -0.048463766 -0.014807616 0.08255511 -0.033019003 -0.07182134
0.005021077 -0.0087798005 -0.04967715 0.05510831 -0.13937113 -0.072662145 0.0846536 0.04834721
-0.049367815 0.07202859 -0.08128431 -0.06217398 -0.0055193943 -0.056069575 0.074169606 -0.07522355
0.19736382 0.093797214 -0.07560529 -0.07583242 0.0062169232 -0.016015833 -0.02978519 0.09318928
0.13877727 0.15954077 0.054885022 -0.103744864 -0.07996575 -0.034466527 0.043223444 0.05620694
-0.022804873 -0.13864395 -0.068037 -0.047053598 -0.0859417 0.023944875 0.011281315 -0.11001803
-0.10104177 -0.07671087 -0.10826455 0.04839396 -0.062675685 -0.12180401 0.036223467 -0.031959932
-0.118807055 0.02469372 -0.012643193 0.010245299 0.043903098 -0.091759376 -0.10363901 0.073197484
0.13449259 0.10447654 0.062143337 0.10285101 0.022356832 -0.13290817 0.01348531 0.016923077
-0.13715187 0.04094024 -0.09960058 -0.12472489 0.13143097 0.018051803 0.08696431 -0.033031814
00000000: d6ce d8bc 7ac2 8fbc 823c e83d fa68 7b3c
00000010: e363 053e 218e 6e3c 771b 3ebd c9fb 98bb
00000020: fe94 ae3d 0307 86bd 7077 243d fe5f c93d
00000030: 6ceb 7a3d c944 953d 2b18 433e b306 e73b
00000040: 6f15 d63c 0f7b 093c dbb6 e2bd a56a cdbd
00000050: df17 b0bc f2b7 99bd f35c 9abd baf8 193c
00000060: 34fb b4bd 2c5c f3bd 8ccd 96bd 93b5 803d
00000070: adc9 813c 1644 23be e447 c4bd 6cac f43c
00000080: 42fe b33d 6034 553d 32e2 253d 1be9 64bc
00000090: 8024 5e3d 551a 483d afff 29bd 6b9e 1f3d
000000a0: aa63 4bbd 9bcf 1a3d 685b 10be b820 99bd
000000b0: 38cf abbd 4968 a7bd f339 f23d 94c1 8cbd
000000c0: 72c4 4c3d efbc b6bc a1f6 6d3c 3ef4 8dbd
000000d0: e2db b1bd 7a24 00be d024 51bc 8902 eebb
000000e0: 1904 0cbe b900 d53d 3f7c a13c 2f27 5fbd
000000f0: 76b3 3abd a8ea b53d 4f0d d63c 8ffa cfbd
00000100: 1158 983d 4bcd cf3d bb29 ce3c 1ec7 a93d
00000110: 2638 c3bd 4105 06bc b4b3 e83d cced edbd
00000120: a2c3 63bd ba4f 863c 4e88 dd3c 94c1 803c
00000130: 3485 3fbd f158 c83d 47e0 1a3e 3f3a 09be
00000140: ecdc afbd aaf3 1b3e a2c0 66bd 4755 f23b
00000150: 4f1b fd3c f075 0e3d 45b3 7abd 4ff3 c7bd
00000160: 129a f0bd dcd8 1f3d c80f ccbb 5a20 81bd
00000170: 1968 e6bd 21fc f13c 36a8 c63c 578f 0dbe
00000180: 96c4 fbbc 2439 32bc 21a9 c2bc 9c01 ef3c
00000190: c452 0f3d bc71 08be c8af 0f3d d233 2a3d
000001a0: 24e6 63bd 86cc a53d d386 d03d 8109 6d3c
000001b0: f517 de3d 0720 873c c422 a7bd 9410 8a3d
000001c0: e91d 58bd 46d0 e3bd 3045 efbd 3db8 0dbb
000001d0: 451a c73d 1be9 8bbd e0df afbb 43cb e93d
000001e0: 3e4c 783d 72c7 c83d e417 073d 23b9 a2bd
000001f0: f94b 8f3b f47f 0fbe 7d78 b7bd bb7f 89bd
00000200: 1db8 c13d 9b28 33bb 5595 22bd cea6 a23d
00000210: 13dc 6cbd 56e5 653d 1005 eb3d 66cf a0bd
00000220: 6246 cf3d 341a 5c3d ec4b 37bd 7cdb 5c3d
00000230: 506d 2dbd 69ff 99bc 8530 debd bc4c d1bd
00000240: 6d2b 3fbd 7f80 15be 9f15 dd3b 9855 563d
00000250: 4d37 a7bd 931e 6ebd 5035 d23c cb10 6dbd
00000260: a821 8d3c b12e abbd e3bb 493b fd2c 1d3e
00000270: 646d 01bd 4aa5 c53d df2f 9abd 2c06 15bd
00000280: ca5f e5bb c738 9b3d a36f aebd c010 57bd
00000290: 8353 e0bd 7108 693c 810a aebd c92b abbd
000002a0: 2f46 83bd 7625 403c bbf0 803d a317 153b
000002b0: d630 8ebd 4aef e53d 7b9d 16bd c2c2 c33c
000002c0: 6bf2 94bd 4d2b a2bb 127b 86bd f181 46bd
000002d0: a59b 72bc a712 a93d ef3e 07bd 1117 93bd
000002e0: d987 a43b 27d9 0fbc 447a 4bbd 40b9 613d
000002f0: 4eb7 0ebe e4cf 94bd de5e ad3d b907 463d
00000300: e835 4abd ba83 933d 6378 a6bd 25aa 7ebd
00000310: 09dc b4bb 36a9 65bd 3ce6 973d ce0e 9abd
00000320: be19 4a3e c118 c03d f2d6 9abd 074e 9bbd
00000330: 55b7 cb3b a333 83bc 1200 f4bc 05da be3d
00000340: a11b 0e3e a85e 233e 1ecf 603d 3078 d4bd
00000350: 15c5 a3bd c62c 0dbd 110b 313d 4039 663d
00000360: 49d1 babc aef8 0dbe fc56 8bbd 46bb 40bd
00000370: 3402 b0bd 0b28 c43c 44d5 383c 2251 e1bd
00000380: fdee cebd 971a 9dbd ceb9 ddbd bf38 463d
00000390: 1c5c 80bd 6174 f9bd 0f5f 143d 6be8 02bd
000003a0: 1d51 f3bd 7c4a ca3c 6525 4fbc e6db 273c
000003b0: bcd3 333d 57ec bbbd b040 d4bd 90e8 953d
000003c0: 6db8 093e ccf7 d53d 038a 7e3d 8da3 d23d
000003d0: ad25 b73c 1419 08be 7df1 5c3c 44a2 8a3c
000003e0: 8a71 0cbe f4b0 273d 64fb cbbd c36f ffbd
000003f0: d795 063e 60e1 933c 581a b23d 5e4c 07bd

encoder_lstm.bias_hh_l0 f4 [256]
0.043864544 -0.018739631 -0.02881551 -0.026939467 0.099321626 -0.10039298 -0.045923945 0.12793826
0.09163953 0.0779479 -0.061324462 0.0704146 -0.09944313 -0.070582055 -0.04082213 -0.10893923
0.112444855 0.13147576 0.0609382 0.044352412 0.07005537 0.08912136 0.08438728 -0.07260922
0.07712926 0.06804475 0.051918164 -0.0075429715 0.10795351 -0.048932705 -0.11149214 -0.0670317
-0.032383397 0.068173304 0.011208433 0.01345365 0.107732974 0.06722428 -0.045383077 -0.06977101
-0.027723638 -0.013780097 -0.11849896 -0.04052102 0.084171474 -0.1522927 0.021719068 0.018014567
-0.022945607 -0.053316414 -0.067863844 -0.12706742 -0.12724273 0.042951293 -0.026681347 0.10210266
-0.041289527 -0.1260945 -0.053077538 -0.14923601 0.07418347 -0.06564185 -0.010943294 0.04664792
-0.10053054 -0.09620749 -0.06698824 -0.03518238 -0.07409757 -0.13617468 0.046977114 0.07473254
0.011179723 -0.090814866 0.0782919 -0.0915892 -0.107951984 -0.119292416 0.0917344 0.01779966
0.15191719 -0.0028664558 -0.08356854 0.10556002 0.07266731 -0.10461421 -0.11381642 0.034090657
-0.08306785 0.009156564 0.0014937276 -0.029184496 0.09516909 0.0030178512 0.044878274 -0.11228548
-0.06778521 0.08161012 0.048432954 0.011534814 -0.13098444 -0.08298224 0.1400414 0.07844173
0.039376713 -0.088137954 -0.08806457 0.024942458 -0.11616964 -0.05124364 0.04978396 0.038549
0.062008943 -0.014052138 0.0797461 -0.13540868 -0.07977131 -0.063803524 0.047701873 -0.02403686
0.07550776 -0.079944566 -0.071079716 0.05754716 0.13027015 0.01718366 -0.019384464 0.08912032
0.014036241 0.05102115 0.011328353 -0.005765802 0.07160772 0.02111736 0.11459671 0.14102636
0.026098961 -0.0838813 -0.07258762 -0.0035328271 0.00086242694 0.033756163 0.084165014 0.06707984
0.008432055 0.043563846 -0.040434223 0.022911532 0.10496541 0.023199309 0.022506867 0.097359076
-0.09704887 0.102214314 -0.054877307 -0.07869054 0.03082765 -0.05029361 0.0067447424 -0.02858163
-0.010305709 -0.05027954 -0.093413435 0.031003386 0.01855102 0.036600374 0.14796133 -0.008813212
-0.0613201 -0.021431698 -0.03363972 -0.042275354 0.087763295 0.0029630566 0.0074142287 -0.07631038
-0.11580705 0.05864797 0.05439291 -0.009968479 0.0044536656 -0.008476675 -0.09721901 0.15092437
0.058447823 -0.067203455 -0.07920616 0.06272215 0.08105843 -0.063352525 0.03890618 -0.10051789
-0.09353756 -0.10328066 0.0048523475 0.11205039 0.07074443 -0.12966184 0.060747515 0.15440862
0.18436748 0.13768698 -0.07937069 -0.07356534 0.056231223 -0.10497762 0.045706447 0.080653675
0.078821324 0.026072502 0.045527413 -0.07517246 -0.07753489 0.05581421 -0.051777866 0.07580889
0.03882837 0.06025606 0.10093291 0.028484887 -0.0479502 -0.14541502 -0.030502323 -0.12594512
0.050767757 0.024343539 -0.07476492 -0.002369408 0.093189694 -0.069529615 0.051295098 -0.009433511
-0.032096814 -0.038043134 0.02351281 -0.046428196 -0.11365833 -0.00044822492 -0.06711664 -0.07167491
0.024632268 0.048518497 -0.040839724 -0.08712362 0.04483403 -0.10107062 0.0032893007 0.14807904
-0.022362065 -0.039555833 -0.050220266 -0.10514507 0.09559153 -0.03295183 -0.018702857 -0.06421533
00000000: 4fab 333d db83 99bc 810e ecbc 28b0 dcbc
00000010: 2369 cb3d d69a cdbd bf1a 3cbd 3f02 033e
00000020: 82ad bb3d 26a3 9f3d 5c2f 7bbd 8835 903d
00000030: d7a8 cbbd 538d 90bd 1b35 27bd 881b dfbd
00000040: 7d49 e63d 95a1 063e 569a 793d e0aa 353d
00000050: 3179 8f3d 4285 b63d 3dd3 ac3d 25b4 94bd
00000060: f2f5 9d3d 0c5b 8b3d 24a8 543d 082b f7bb
00000070: bb16 dd3d a96d 48bd fe55 e4bd ea47 89bd
00000080: 74a4 04bd 729e 8b3d 93a3 373c b36c 5c3c
00000090: 1ba3 dc3d e2ac 893d 9be3 39bd 1ae4 8ebd
000000a0: af1c e3bc eac5 61bc 95af f2bd 5ef9 25bd
000000b0: 1862 ac3d 9ef2 1bbe 30ec b13c 4993 933c
000000c0: 6df8 bbbc 5062 5abd 33fc 8abd f61d 02be
000000d0: eb4b 02be b2ed 2f3d d792 dabc 331b d13d
000000e0: 351f 29bd eb1e 01be d567 59bd 53d1 18be
000000f0: 81ed 973d 3c6f 86bd 804b 33bc e411 3f3d
00000100: f5e2 cdbd 6f08 c5bd 2131 89bd 661b 10bd
00000110: 77c0 97bd 6071 0bbe 136b 403d 600d 993d
00000120: 282b 373c 25fd b9bd 8157 a03d 1e93 bbbd
00000130: ee15 ddbd 954f f4bd 3fdf bb3d 98d0 913c
00000140: 2e90 1b3e 26db 3bbb fc25 abbd da2f d83d
00000150: 99d2 943d fa3f d6bd 9518 e9bd a5a2 0b3d
00000160: 7a1f aabd 6a05 163c 2ec9 c33a 5314 efbc
00000170: 03e8 c23d 24c7 453b 48d2 373d eef5 e5bd
00000180: f9d2 8abd 3523 a73d a261 463d 84fc 3c3c
00000190: c920 06be 98f2 a9bd 0367 0f3e 0fa6 a03d
000001a0: 7a49 213d ac81 b4bd 335b b4bd 2054 cc3c
000001b0: 59ea edbd dae4 51bd 44ea 4b3d 8ee5 1d3d
000001c0: 17fd 7d3d f03a 66bc ec51 a33d 93a8 0abe
000001d0: 245f a3bd 6cab 82bd 0a63 433d f3e8 c4bc
000001e0: d0a3 9a3d fab9 a3bd 3e92 91bd 92b6 6b3d
000001f0: 8a65 053e bfc4 8c3c 2bcc 9ebc b784 b63d
00000200: 43f8 653c 8efb 503d 8e9a 393c 0eef bcbb
00000210: 11a7 923d 50fe ac3c aeb1 ea3d 3769 103e
00000220: 7dcd d53c f6c9 abbd d1a8 94bd 0187 67bb
00000230: 7e14 623a e743 0a3d b55e ac3d 2861 893d
00000240: 9a26 0a3c 0170 323d 5b9e 25bd f7b0 bb3c
00000250: 1bf8 d63d 7a0c be3c 5260 b83c 3264 c73d
00000260: 8fc1 c6bd bd55 d13d 07c7 60bd 8128 a1bd
00000270: 458a fc3c ac00 4ebd 0003 dd3b 0624 eabc
00000280: 47d9 28bc ebf1 4dbd 8b4f bfbd d0fa fd3c
00000290: 4ff8 973c 46ea 153d 2d83 173e 4a65 10bc
000002a0: c92a 7bbd 8791 afbc cec9 09bd ec28 2dbd
000002b0: 3ebd b33d d72f 423b 0ff3 f23b 9e48 9cbd
000002c0: 3f2c edbd db38 703d 1acb 5e3d d552 23bc
000002d0: 0ef0 913b c0e1 0abc c31a c7bd eb8b 1a3e
000002e0: fc66 6f3d f7a1 89bd d736 a2bd 7874 803d
000002f0: f601 a63d f8be 81bd 165c 1f3d 53dc cdbd
00000300: 9f90 bfbd d084 d3bd 7100 9f3b ad7a e53d
00000310: 75e2 903d 13c6 04be 63d2 783d 4b1d 1e3e
00000320: d4ca 3c3e d1fd 0c3e 1a8d a2bd 6da9 96bd
00000330: b652 663d 82fe d6bd af36 3b3d c12d a53d
00000340: 136d a13d 0096 d53c f47a 3a3d 05f4 99bd
00000350: 9dca 9ebd 719d 643d 0715 54bd b141 9b3d
00000360: 7f0a 1f3d 0fcf 763d eab5 ce3d 2359 e93c
00000370: 6e67 44bd ade7 14be 02e0 f9bc c2f7 00be
00000380: daf1 4f3d 1a6c c73c 5a1e 99bd 1248 1bbb
00000390: 3dda be3d 8b65 8ebd cf1a 523d 038f 1abc
000003a0: f377 03bd 1ed3 1bbd f09d c03c 7e2b 3ebd
000003b0: b3c5 e8bd bbff eab9 7374 89bd 4cca 92bd
000003c0: 9cc9 c93c 55bb 463d 8e47 27bd de6d b2bd
000003d0: e3a3 373d 1dfe cebd 4f91 573b 08a2 173e
000003e0: a630 b7bc 4c05 22bd c4b3 4dbd 4c56 d7bd
000003f0: 7ec5 c33d 80f8 06bd bc36 99bc 5483 83bd

encoder_lstm.weight_ih_l1 f4 [256, 64]
0.024640566 -0.07034745 0.07560527 -0.0009751524 -0.08681356 0.09694664 0.048787396 0.024199044
-0.17036119 -0.057183057 0.08073493 -0.11085009 0.03732188 0.09293657 0.097377874 -0.08702227
0.13240154 -0.030656157 -0.056056276 -0.07893268 0.054832473 0.14473163 -0.08417216 -0.06032853
0.104779825 0.04943154 0.11732575 -0.11500234 0.13097215 -0.042930398 -0.09456525 -0.04698311
-0.031185511 0.15539187 -0.035384182 -0.06810207 0.025171867 -0.10997432 -0.12970191 0.021197425
0.10935948 -0.09125323 0.07964208 -0.051946457 -0.07167207 0.12007397 0.05262119 -0.042135976
-0.00985217 1.8941082e-05 0.060025282 0.079917915 -0.0089471685 -0.07235191 0.06249843 -0.27147856
0.0070383362 -0.12824349 -0.03532482 0.0030438679 0.13159664 0.01367176 -0.123457216 0.08577683
-0.04649435 -0.07681696 -0.07981825 0.014913364 -0.03930788 -0.035887577 -0.07623911 -0.13136572
-0.24324572 0.05711558 0.02290614 0.06306934 -0.12094823 0.08987621 0.23444791 -0.10297312
0.13273332 0.19050013 -0.106491864 0.072281644 0.061721977 0.11087205 -0.05575741 -0.05638786
0.013942077 -0.048081025 0.093299985 -0.11844171 0.116313845 -0.04665792 0.049333647 -0.03825923
-0.06728685 0.08240063 -0.104746565 0.07427195 0.13341741 -0.08558504 0.010377136 -0.110363945
0.003207269 -0.0778118 -0.10068631 0.09655957 0.047773987 0.00043925148 0.061517887 -0.055344727
0.15745139 -0.13277137 -0.05498231 -0.054511886 -0.06979497 0.09025938 0.110204004 -0.098117165
-0.042478133 -0.08516761 -0.036516923 -0.05546561 0.05723074 0.052361812 0.05453178 0.120549485
-0.14886181 0.121154435 -0.071926534 0.007365798 0.06642442 0.011525852 -0.035285093 -0.102876
-0.08018802 -0.004181542 0.06035413 0.014248291 0.056920826 -0.027528303 0.23432398 -0.09791345
-0.0016997339 -0.015620633 -0.030748766 -0.050693303 0.085374296 0.006235625 0.008682325 0.12582555
-0.119402096 0.029231556 -0.053934503 0.015507106 -0.015011644 -0.10440396 -0.029256618 -0.005535895
-0.018526904 0.175322 -0.02225597 -0.025765188 0.13351753 -0.019514566 0.0524903 0.07174688
-0.11824471 -0.06786825 0.02417242 -0.05510385 -0.03216591 -0.070804395 -0.030593256 0.11411502
0.123291776 0.08172777 -0.061759427 -0.057596378 -0.11158245 -0.0023334709 0.0952125 -0.16908093
-0.021525236 0.053612202 -0.014315633 0.021010028 0.17124112 0.08880897 0.05970424 -0.059334677
0.0050981017 0.19571723 0.2244245 -0.035591748 0.21488346 0.06581842 0.02142544 -0.09684778
-0.119893916 0.054985985 0.08619538 -0.13758197 -0.032454226 -0.17446326 0.25392112 -0.06106813
0.1621091 0.08313899 -0.17119014 0.13811767 -0.027282994 0.019173795 0.07879327 -0.0015227455
-0.14502504 -0.023551216 0.113349825 -0.14732632 0.02195184 0.08499074 -0.041037634 -0.039681107
-0.09318322 0.12152222 -0.13939652 0.22037572 -0.009911108 0.13127342 -0.03406046 -0.09415132
-0.17563555 -0.008173251 0.051757053 0.0570879 -0.16383402 0.06802286 0.20600595 -0.024159668
0.03189397 -0.11526402 -0.051063903 -0.16411123 -0.21430399 -0.11707804 -0.16576263 0.020588774
0.05629083 -0.029606108 -0.11745307 0.03432686 0.053912245 -0.21796548 0.016999863 0.09639776
00000000: 03db c93c 5312 90bd f0d6 9a3d 5fa1 7fba
00000010: 4fcb b1bd f68b c63d 4bd5 473d 133d c63c
00000020: 2a73 2ebe c838 6abd 5b58 a53d 5f05 e3bd
00000030: d4de 183d 8755 be3d 0d6e c73d bb38 b2bd
00000040: 4594 073e 9f22 fbbc 449b 65bd 75a7 a1bd
00000050: 0498 603d 8734 143e 7462 acbd 0c1b 77bd
00000060: ce96 d63d ba78 4a3d 7c48 f03d 5986 ebbd
00000070: 901d 063e c9d7 2fbd 6dab c1bd 5d71 40bd
00000080: c278 ffbc 0c1f 1f3e 01ef 10bd 1979 8bbd
00000090: 3b35 ce3c 373a e1bd 94d0 04be 39a6 ad3c
000000a0: ddf7 df3d f9e2 babd 631b a33d cfc5 54bd
000000b0: cec8 92bd 57e9 f53d 5189 573d c696 2cbd
000000c0: ff6a 21bc aae3 9e37 12dd 753d 01ac a33d
000000d0: 2597 12bc 3d2d 94bd 5bfe 7f3d 3dff 8abe
000000e0: d8a1 e63b 4352 03be c2b0 10bd a17b 473b
000000f0: 45c1 063e 85ff 5f3c 23d7 fcbd c3ab af3d
00000100: dc70 3ebd 3652 9dbd c077 a3bd 2f57 743c
00000110: 4d01 21bd dafe 12bd 4023 9cbd bc84 06be
00000120: 6815 79be 07f2 693d a8a5 bb3c 802a 813d
00000130: b5b3 f7bd 0511 b83d 1d13 703e 92e3 d2bd
00000140: 3eeb 073e 7712 433e 6818 dabd 6608 943d
00000150: 2fd0 7c3d e310 e33d e261 64bd f5f6 66bd
00000160: 4f6d 643c 9cf0 44bd 1014 bf3d 9191 f2bd
00000170: f435 ee3d 601c 3fbd 1412 4a3d b6b5 1cbd
00000180: b0cd 89bd a9c1 a83d 5e85 d6bd e41b 983d
00000190: 939e 083e 3647 afbd dd04 2a3c 7e06 e2bd
000001a0: 0b31 523b cb5b 9fbd a034 cebd 06c1 c53d
000001b0: a8ae 433d 564b e639 2efa 7b3d 27b1 62bd
000001c0: f03a 213e 38f5 07be 2135 61bd db47 5fbd
000001d0: aaf0 8ebd e9d9 b83d a3b2 e13d a7f1 c8bd
000001e0: 8dfd 2dbd 5b6c aebd c592 15bd e82f 63bd
000001f0: c86a 6a3d 5779 563d b75c 5f3d a6e2 f63d
00000200: 3b6f 18be d11f f83d 384e 93bd cb5c f13b
00000210: 8709 883d edd6 3c3c 1a87 10bd a7b0 d2bd
00000220: 9e39 a4bd 5105 89bb e435 773d aa71 693c
00000230: d025 693d 0983 e1bc a0f2 6f3e d986 c8bd
00000240: 9bc9 deba afed 7fbc d6e4 fbbc c8a3 4fbd
00000250: b8d8 ae3d 3754 cc3b 4f40 0e3c 6ad8 003e
00000260: 1689 f4bd 0477 ef3c 6dea 5cbd 8411 7e3c
00000270: 66f3 75bc bed1 d5bd 93ab efbc 7466 b5bb
00000280: bcc5 97bc 9c87 333e 2752 b6bc 8411 d3bc
00000290: d2b8 083e 03dd 9fbc 1200 573d 07f0 923d
000002a0: 482a f2bd 82fe 8abd 3d05 c63c 93b4 61bd
000002b0: 67c0 03bd e501 91bd b59e fabc 23b5 e93d
000002c0: 6680 fc3d e460 a73d 74f7 7cbd 2eea 6bbd
000002d0: 5785 e4bd 25ed 18bb c5fe c23d 8d23 2dbe
000002e0: b155 b0bc 7898 5b3d 1e8c 6abc 391d ac3c
000002f0: d559 2f3e 7ae1 b53d 6f8c 743d eb08 73bd
00000300: fa0d a73b 196a 483e 89cf 653e a7c8 11bd
00000310: 690a 5c3e cfcb 863d 6884 af3c 2158 c6bd
00000320: f18a f5bd fc38 613d 3487 b03d 4ae2 0cbe
00000330: b9ee 04bd 7fa6 32be f301 823e 9322 7abd
00000340: eeff 253e c644 aa3d 784c 2fbe b86e 0d3e
00000350: 9680 dfbc 5d12 9d3c 5e5e a13d dc96 c7ba
00000360: 7281 14be 7bee c0bc f423 e83d b6dc 16be
00000370: 58d4 b33c a00f ae3d 1417 28bd a888 22bd
00000380: d8d6 bebd a4e0 f83d f6bd 0ebe 2caa 613e
00000390: 3362 22bc 8a6c 063e fb82 0bbd 68d2 c0bd
000003a0: ced9 33be 19e9 05bc 34ff 533d 00d5 693d
000003b0: 1bc4 27be 924f 8b3d 39f3 523e 7fea c5bc
000003c0: 40a3 023d 8b0f ecbd 6228 51bd c60c 28be
000003d0: 8172 5bbe 9dc6 efbd aebd 29be caa9 a83c
000003e0: 3791 663d 8288 f2bc 3c8b f0bd 529a 0c3d
000003f0: 16d3 5c3d 5832 5fbe 4c43 8b3c 306c c53d

encoder_lstm.weight_hh_l1 f4 [256, 64]
-0.07934983 -0.08553576 0.10166637 -0.063275225 -0.10263025 -0.09051323 0.073885925 -0.013331028
0.038513165 0.008125166 -0.12237627 0.039077584 0.026484817 0.042054646 0.10772077 0.07904181
-0.018477809 -0.12143721 -0.006321825 -0.063207716 0.01360408 -0.0063394853 -0.022373388 -0.029426992
0.12566504 0.056434404 0.052217275 0.05747728 -0.10847168 -0.07527592 0.01898298 0.042762447
0.07933446 0.04618258 0.034539543 0.10894257 -0.07654823 -0.035666585 -0.0469032 -0.09005514
-0.027463505 -0.09837983 -0.018727519 -0.026523711 -0.0958533 0.07829947 -0.05502776 0.038530517
0.078429796 -0.004036757 0.07823489 -0.0394305 0.019659985 0.062047996 0.09549421 -0.08524965
0.030706728 0.11443522 0.055593304 -0.032637414 0.06619628 0.08905534 0.004626728 -0.0017601546
-0.045213763 -0.005888145 -0.117472485 0.08173722 0.0263564 0.03289089 -0.047625553 0.06492118
0.009372136 -0.12184238 0.1247369 -0.108331025 0.04893805 0.11451133 -0.076889075 0.01910713
0.03177962 -0.02488318 0.031894986 -0.04010646 0.036568392 0.09150379 0.08384338 -0.027539283
0.0844907 0.06720195 -0.1241315 -0.040080503 0.09981485 0.019412164 -0.04565572 0.060203407
0.015425559 0.06048387 0.17366272 -0.0006882261 0.023753587 -0.09807484 0.011008606 0.110920146
0.052981995 -0.10525781 0.051701013 -0.018969089 -0.058778085 -0.040987384 0.08418171 0.12715831
-0.05225743 0.07986749 0.1076323 -0.025570853 -0.106651686 -0.10382821 -0.016332116 0.0218508
-0.05400514 -0.0043806233 -0.044560775 0.117454305 0.003364416 -0.027827512 0.058390595 0.0026952408
-0.058396664 0.05799021 -0.07852062 0.015796755 0.07109975 -0.05039023 0.07132874 0.07737233
-0.019765168 -0.07422936 -0.013673637 -0.09578916 0.01261822 -0.05640274 -0.08472687 -0.05056957
-0.097156055 -0.047098625 0.08526789 0.084412456 -0.023496838 0.056741737 0.03559482 -0.07982522
0.087756045 0.063419804 0.031870034 -0.06195796 -0.039933823 0.09994599 -0.064951435 -0.13005507
0.069467194 0.008712394 -0.0018685064 0.069587626 -0.009284662 0.052129973 -0.046259455 0.08233226
-0.10683555 0.0519357 -0.051738106 0.0898106 -0.12839547 0.072511785 0.06414665 -0.08736924
0.0558717 -0.036413353 -0.102827676 -0.025723005 0.06023234 -0.016525865 -0.10110548 -0.02217271
0.11108572 0.014364287 0.11500764 0.054279435 0.12120037 0.06745369 -0.08146205 0.03280778
0.0691325 -0.20620455 0.18671547 0.13870595 -0.026626814 -0.007829656 0.049692303 0.14741066
-0.01590408 -0.02502271 -0.20092264 -0.1055028 -0.10667437 -0.021174846 -0.07090547 0.015665885
-0.18873125 -0.18343331 -0.05076422 -0.13157989 0.030530747 -0.18609434 -0.2128063 -0.16381133
-0.18048891 -0.13361079 0.061515227 0.0009498499 0.1325577 -0.044481948 -0.09811044 0.002388126
-0.029258104 -0.033585817 0.07717243 0.19680789 -0.20212609 0.01141672 0.103236 -0.11166397
0.029725512 -0.009857563 0.06473629 -0.21912336 -0.050740436 -0.026892819 0.0019323153 0.010122447
-0.022265194 0.18119204 -0.2578343 -0.1363569 0.24743108 0.037374265 -0.18093732 -0.004922478
0.043621846 0.14977928 0.13937436 -0.18187127 -0.06858759 0.1665965 0.21027681 0.057768364
00000000: 2a82 a2bd 5f2d afbd 7536 d03d 7196 81bd
00000010: cf2f d2bd 005f b9bd 8151 973d 626a 5abc
00000020: fbbf 1d3d 6b1f 053c 69a0 fabd d10f 203d
00000030: b0f6 d83c 7e41 2c3d b59c dc3d ace0 a13d
00000040: c65e 97bc 12b4 f8bd 5027 cfbb 0c73 81bd
00000050: a6e3 5e3c 75bb cfbb 6548 b7bc e010 f1bc
00000060: 56ae 003e c327 673d c8e1 553d 4c6d 6b3d
00000070: 6626 debd 432a 9abd 3282 9b3c ad27 2f3d
00000080: 1b7a a23d f229 3d3d 5679 0d3d 481d df3d
00000090: 52c5 9cbd 2017 12bd 921d 40bd d46e b8bd
000000a0: 25fb e0bc 5d7b c9bd 746a 99bc 4148 d9bc
000000b0: bc4e c4bd 795b a03d ca64 61bd 2dd2 1d3d
000000c0: cd9f a03d c646 84bb 9d39 a03d e081 21bd
000000d0: fa0d a13c 0a26 7e3d 7892 c33d 5e97 aebd
000000e0: ad8c fb3c 035d ea3d ceb5 633d cfae 05bd
000000f0: ea91 873d a562 b63d cf9b 973b fdb4 e6ba
00000100: 1132 39bd 57f1 c0bb 6a95 f0bd d865 a73d
00000110: 61e9 d73c 99b8 063d 0313 43bd 65f5 843d
00000120: 968d 193c 7f88 f9bd 0f76 ff3d a8dc ddbd
00000130: 4473 483d eb84 ea3d 0578 9dbd 8e86 9c3c
00000140: 592b 023d d0d7 cbbc 51a4 023d ac46 24bd
00000150: bdc8 153d 5766 bb3d 14b6 ab3d 109a e1bc
00000160: 7609 ad3d 2da1 893d a838 febd 742b 24bd
00000170: ba6b cc3d 4206 9f3c 7e01 3bbd d997 763d
00000180: 7cbb 7c3c efbd 773d a4d4 313e 126a 34ba
00000190: e296 c23c 76db c8bd 715d 343c 1a2a e33d
000001a0: a603 593d 6891 d7bd 71c4 533d 1065 9bbc
000001b0: 4ac1 70bd 63e2 27bd 7667 ac3d ca35 023e
000001c0: e30b 56bd 9191 a33d 536e dc3d f779 d1bc
000001d0: 336c dabd e2a3 d4bd eeca 85bc 7300 b33c
000001e0: 7e34 5dbd 558b 8fbb 5c85 36bd e28b f03d
000001f0: 897d 5c3b 86f6 e3bc fa2a 6f3d a3a2 303b
00000200: 5731 6fbd 2487 6d3d 6bcf a0bd 3268 813c
00000210: bf9c 913d fc65 4ebd cd14 923d 6275 9e3d
00000220: 90ea a1bc 9005 98bd 6407 60bc 1b2d c4bd
00000230: a7bc 4e3c 8f06 67bd 4885 adbd 0a22 4fbd
00000240: c1f9 c6bd 7dea 40bd eea0 ae3d 70e0 ac3d
00000250: 717c c0bc 066a 683d e0cb 113d 687b a3bd
00000260: 71b9 b33d 3ee2 813d 278a 023d a1c7 7dbd
00000270: a691 23bd 7cb0 cc3d 4205 85bd 282d 05be
00000280: d144 8e3d 6ebe 0e3c ace8 f4ba f583 8e3d
00000290: b21e 18bc 3d86 553d 8e7a 3dbd d19d a83d
000002a0: 99cc dabd 87ba 543d 56eb 53bd 9fee b73d
000002b0: 1a7a 03be 0f81 943d 525f 833d a5ee b2bd
000002c0: b9d9 643d 2b26 15bd 5197 d2bd 0db9 d2bc
000002d0: 30b6 763d 4061 87bc 6410 cfbd 8ba3 b5bc
000002e0: e980 e33d 3058 6b3c 2089 eb3d 1d54 5e3d
000002f0: e637 f83d 2925 8a3d 93d5 a6bd 7361 063d
00000300: 5795 8d3d 4927 53be 5732 3f3e ef08 0e3e
00000310: 7a20 dabc f547 00bc 288a 4b3d d2f2 163e
00000320: 4649 82bc 6dfc ccbc aabe 4dbe da11 d8bd
00000330: 1878 dabd df76 adbc e336 91bd be55 803c
00000340: c442 41be f1d5 3bbe 25ee 4fbd e1bc 06be
00000350: 9e1b fa3c 848f 3ebe e5e9 59be 28be 27be
00000360: 16d2 38be 44d1 08be 64f7 7b3d 59ff 783a
00000370: 35bd 073e b432 36bd 20ee c8bd 1b82 1c3b
00000380: b1ae efbc 4891 09bd 940c 9e3d 0288 493e
00000390: 24fa 4ebe 320d 3b3c 656d d33d 14b0 e4bd
000003a0: eb82 f33c 9e81 21bc 7694 843d e061 60be
000003b0: 34d5 4fbd 544e dcbc be45 fd3a 9fd8 253c
000003c0: 7f65 b6bc 688a 393e db02 84be 25a1 0bbe
000003d0: 935e 7d3e c215 193d a247 39be bd4c a1bb
000003e0: d2ac 323d bd5f 193e 27b8 0e3e 763c 3abe
000003f0: a677 8cbd 4698 2a3e ce52 573e 859e 6c3d

encoder_lstm.bias_ih_l1 f4 [256]
0.0061048553 0.11282387 -0.06773292 0.10907562 0.06894158 -0.043169323 -0.109497935 -0.0030499827
-0.025596526 0.10354661 -0.013942601 0.07481932 0.093431726 -0.06910736 -0.013930202 -0.030652123
0.04686817 0.08895467 -0.0953838 -0.08845761 0.007702579 -0.037115674 0.122273885 0.11342741
-0.050332658 0.08467502 0.0015070996 0.08943371 -0.009500991 0.07699017 -0.014657761 0.11713451
-0.038971227 0.08179437 0.08115028 -0.07084036 -0.07798996 0.007566983 -0.06004799 0.01927105
0.040983412 0.060220137 0.020227993 -0.066507444 -0.047015037 0.087662555 0.11051342 0.06837239
-0.043132875 0.065926895 -0.064999565 0.10907048 -0.02770493 -0.014006154 0.091438934 -0.102368385
0.049974076 -0.035781235 -0.0031268715 0.01482463 -0.033231813 -0.0031669538 0.024492579 0.008171387
0.1255299 -0.008185373 -0.05404476 0.09667052 -0.08002687 -0.05004547 0.0112190675 0.030711174
0.024736485 0.014427159 -0.024526468 0.123624906 -0.13054068 -0.090509616 -0.08806208 0.07855726
0.045114066 0.029398914 -0.0070085307 -0.067422666 -0.10011116 0.08162409 0.08289258 0.07364551
-0.03884209 -0.11381374 -0.03875024 -0.121334784 -0.02303866 0.096689634 0.010958591 0.120385714
-0.034063473 -0.0684792 -0.1417669 0.12460149 -0.11448382 -0.07960835 -0.047002286 0.04056692
0.07454082 0.038030937 0.013002558 0.11951017 0.08325231 -0.06775919 -0.0066648507 0.11177851
-0.08382334 -0.012411283 -0.037480842 -0.11385663 0.08057425 0.06418807 0.02489858 -0.05637007
0.1216422 -0.08045103 -0.091520384 -0.13313599 0.092991084 0.06764579 -0.026760716 -0.10112397
0.017557027 -0.12003505 0.10257539 -0.097395524 0.04410989 0.008359382 0.1024027 -0.04516348
-0.004202745 -0.08379614 -0.065787315 0.11275003 0.10943558 0.05032084 -0.1077416 0.07118591
-0.11905576 -0.08811132 -0.10469653 -0.04440938 -0.03886982 -0.09049155 -0.08011946 -0.06303838
-0.059477456 0.049344048 0.097804934 0.025086159 0.0225899 0.08413599 -0.015268368 -0.06729411
-0.08801608 -0.09257005 0.029699177 0.100949556 -0.01373149 -0.014143667 0.10976705 -0.058344375
0.10754689 -0.06263868 0.11195403 -0.12404404 -0.090491585 0.049754653 0.07077094 -0.05064729
-0.057863664 0.095689006 0.056359947 -0.116283014 0.08677081 0.018356161 -0.08898896 -0.009232981
0.0015960342 0.04844779 -0.061055303 -0.04421546 -0.0297112 -0.044208065 0.039105263 0.01880881
0.052067947 -0.03561815 0.015083242 0.060597382 0.061863735 -0.060168277 -0.036875427 0.08489192
-0.080478005 0.061639614 0.028076798 0.1179183 0.10485948 -0.045378994 0.08226041 0.029926537
0.058928665 0.038897756 0.0109716775 -0.0012852602 0.027506266 -0.11143185 -0.0675754 0.020487249
-0.046953175 0.024854193 -0.03522701 0.040314108 0.09636634 0.035191305 0.07061563 -0.07384834
0.004286886 -0.10681144 0.05368239 -0.10637315 0.0723112 0.030797241 0.012737592 0.023607178
0.054493744 0.1003861 -0.06523329 -0.069450885 -0.03349752 -0.12123189 -0.025406467 -0.06895709
-0.005755851 0.004293934 0.1063815 -0.04908268 -0.114185534 0.038109753 0.017890738 -0.09677124
0.031603612 0.117362574 -0.13186595 -0.09597631 0.019318536 0.080569595 0.1183868 -0.056189973
00000000: 3d0b c83b 3310 e73d 8fb7 8abd 0a63 df3d
00000010: 3e31 8d3d 51d2 30bd 7440 e0bd 38e2 47bb
00000020: ceaf d1bc 3f10 d43d 826f 64bc df3a 993d
00000030: 2259 bf3d 2988 8dbd 813b 64bc 291a fbbc
00000040: d7f8 3f3d de2d b63d 9558 c3bd 4329 b5bd
00000050: ea65 fc3b 9b06 18bd bb6a fa3d a14c e83d
00000060: 9e29 4ebd 196a ad3d df89 c53a 0529 b73d
00000070: 0baa 1bbc 06ad 9d3d 1b27 70bc 38e4 ef3d
00000080: 4ba0 1fbd cf83 a73d 1e32 a63d c014 91bd
00000090: 33b9 9fbd 74f4 f73b e2f4 75bd 52de 9d3c
000000a0: 39de 273d 64a9 763d 2db5 a53c 0e35 88bd
000000b0: d792 40bd 6d88 b33d dc54 e23d d306 8c3d
000000c0: 19ac 30bd ae04 873d 7e1e 85bd 5860 df3d
000000d0: 73f5 e2bc 117a 65bc 5644 bb3d 84a6 d1bd
000000e0: 9eb1 4c3d 588f 12bd 33ec 4cbb 01e3 723c
000000f0: 151e 08bd ab8c 4fbb a9a4 c83c 48e1 053c
00000100: e98a 003e f11b 06bc 0a5e 5dbd 32fb c53d
00000110: 21e5 a3bd 7bfc 4cbd 2ed0 373c 0096 fb3c
00000120: 2ba4 ca3c e45f 6c3c bbeb c8bc 0e2f fd3d
00000130: 75ac 05be 1b5d b9bd e459 b4bd a1e2 a03d
00000140: 87c9 383d fed5 f03c d1a7 e5bb e514 8abd
00000150: 1407 cdbd 882a a73d 96c3 a93d 75d3 963d
00000160: e218 1fbd 2e17 e9bd 92b8 1ebd 5f7e f8bd
00000170: 92bb bcbc 3705 c63d a98b 333c c98c f63d
00000180: 2486 0bbd d33e 8cbd 582b 11be 112f ff3d
00000190: 7e76 eabd b409 a3bd 7885 40bd 8029 263d
000001a0: dca8 983d 54c6 1b3d ae08 553c bfc1 f43d
000001b0: 3080 aa3d 55c5 8abd d264 dabb 22ec e43d
000001c0: 92ab abbd b258 4bbc 8385 19bd aa2d e9bd
000001d0: 1d04 a53d 0975 833d 1bf8 cb3c 4de4 66bd
000001e0: 8c1f f93d 82c3 a4bd 0a6f bbbd cd54 08be
000001f0: 1c72 be3d e089 8a3d 4a39 dbbc 151a cfbd
00000200: c1d3 8f3c f0d4 f5bd 0c13 d23d 4e77 c7bd
00000210: 92ac 343d caf5 083c 82b8 d13d 57fd 38bd
00000220: 2eb7 89bb 509d abbd 80bb 86bd 7de9 e63d
00000230: c31f e03d 3a1d 4e3d a1a7 dcbd ebc9 913d
00000240: 82d3 f3bd b573 b4bd 226b d6bd 9ce6 35bd
00000250: f635 1fbd a253 b9bd ac15 a4bd 441a 81bd
00000260: a29e 73bd fc1c 4a3d f44d c83d 7d81 cd3c
00000270: 740e b93c 7d4f ac3d 2d28 7abc 7fd1 89bd
00000280: c641 b4bd 5e95 bdbd b04b f33c a4be ce3d
00000290: 0bfa 60bc d7ba 67bc 8ccd e03d 83fa 6ebd
000002a0: 8b41 dc3d b548 80bd 2848 e53d cd0a febd
000002b0: a753 b9bd 89cb 4b3d 5bf0 903d 8873 4fbd
000002c0: 7302 6dbd 99f8 c33d b0d9 663d ca25 eebd
000002d0: e5b4 b13d a95f 963c d83f b6bd ee45 17bc
000002e0: 0532 d13a 3171 463d 2015 7abd 451b 35bd
000002f0: e764 f3bc 8413 35bd d72c 203d ef14 9a3c
00000300: 3345 553d 56e4 11bd b41f 773c f634 783d
00000310: d464 7d3d 0373 76bd b00a 17bd d1db ad3d
00000320: a7d1 a4bd d279 7c3d 5001 e63c 267f f13d
00000330: 91c0 d63d 53df 39bd 2578 a83d 7f28 f53c
00000340: 2f5f 713d 4153 1f3d 8dc2 333c 2d76 a8ba
00000350: d254 e13c 6236 e4bd f964 8abd e0d4 a73c
00000360: f951 40bd 059b cb3c 324a 10bd 6820 253d
00000370: b75b c53d c224 103d ed9e 903d cc3d 97bd
00000380: 0279 8c3b f5bf dabd 11e2 5b3d 2bda d9bd
00000390: e517 943d 7f4a fc3c 55b1 503c d763 c13c
000003a0: d534 5f3d 3a97 cd3d 0899 85bd 443c 8ebd
000003b0: b234 09bd 6d48 f8bd 3921 d0bc 6039 8dbd
000003c0: 949b bcbb 21b4 8c3b 8bde d93d ec0a 49bd
000003d0: 1bda e9bd f918 1c3d 998f 923c 0030 c6bd
000003e0: ca72 013d ca5b f03d de07 07be 3a8f c4bd
000003f0: e841 9e3c ac01 a53d c774 f23d 7527 66bd
