model_artifacts/forecast_lstm_ae.pth (torch, 305193 bytes, 24 tensors)

encoder_lstm.weight_ih_l0 f4 [256, 3]
00000000: 8a43 253e d06d 063e e6ad 2c3d 9c3f b13d
00000010: 4a9a 0e3d 0644 e0bd ad36 07be e4b9 753e
00000020: 3bf1 093e c647 f1bd 88f0 a83d 098f 773d
00000030: 5099 49bc 3bf4 b43e 0562 4d3e 086b 27bd
00000040: f285 df3d 9da7 dc3d c4e8 a3be dfb0 f33c
00000050: d65c 4fbe 965b 073a 88ec 61bd dbd4 5f3e
00000060: 59b6 23be c943 17be c23f ebbd dc29 35be
00000070: 93f7 053d 72b7 3bbd aa3d c2bc e285 7bbb
00000080: d062 f43d 23e7 babd 8f6c 943a e518 1a3e
00000090: 4a4a 6dbd 503a 733e bd1f d23d 3194 73be
000000a0: 12b7 623e 1f69 2a3e a360 afbc c418 7a3e
000000b0: 02de 4a3e 852a bdbc bc0e a13e faad 2fbd
000000c0: 8e38 3f3e 29e9 c83d 3f0f 183d 30d7 02be
000000d0: e875 e2bd 535c fa3d 9ef9 40be e1c3 74be
000000e0: 1e7c 4bbe 1755 c1ba 3df0 f83d 9760 11bc
000000f0: 67c4 aabd a34a 333e 7e29 c53c a33c f7bc
00000100: ecbc 753e bfdb f8bc 6278 273e ebe5 c33c
00000110: 35b3 d13d f176 ecbd 1f93 083e abc9 61bd
00000120: a773 abbc 5c1c a93e 271b 343e 0a6b db3d
00000130: a5a7 413b 687d 913e b22e 30be 90d2 083f
00000140: 11a5 963d 63c8 323b 1324 173e 3fc8 f13d
00000150: 6dff ca3d 617f 84bd b52d 69bc 8bee 09be
00000160: 3ae7 253e 4cc0 eb3b fbd7 143e 76e6 063e
00000170: 17a9 923d 7990 aabd 930a 34be f443 adbd
00000180: 00d5 893d 66ea 40bc 698e 5d3d bc5c 41be
00000190: 499f 99bd 63bc bf3d 0cb8 023d ab23 7fbd
000001a0: bb71 203e d760 2d3d 2201 60be 412b afbc
000001b0: 5740 fbbd 3077 493d 882a 193d 1bb9 483c
000001c0: 4dd0 1e3e 19f8 f93c e04f 3dbe f2ee 29be
000001d0: 3ef9 7cbd 4239 66be 71c9 7dbb c253 d8bd
000001e0: 4609 29bd 690a a1bd 27c1 aabd caf3 14be
000001f0: 294f f0bd e45b f2bd 86dd 63bd 10d0 63bd
00000200: 41fe 133e 56f6 9dbd 6e59 fd3d 92a5 ee3d
00000210: 4bab 7a3e 3f52 d63e bbf6 2c3e c081 94be
00000220: 65fa 623c fbfb 6fbe 4be1 09be d1f8 70bd
00000230: ec17 443d b8a3 89be 01f8 c13d 45f5 5ebc
00000240: 74d1 983c ce25 5a3e 5619 233e 1d33 fc3d
00000250: 8aaf fb3e 2215 50be 5444 2bbc f05c 3fbb
00000260: 4520 073d 1b02 94bd a11a 463e 0cf5 20be
00000270: 842d 253d cd94 1e3d 9004 e2b9 4f44 14be
00000280: 16dc 4b3a 1401 47bd 5664 7d3d ca13 b7bd
00000290: 177c 663e d886 97bd 7bfc 0c3d 85a6 6d3e
000002a0: b83e 37bd 7874 e7bd d2fc 0dbe 7c7b 01be
000002b0: d22f f63d fb71 1abe da81 e3bd 9ee7 55bd
000002c0: da87 353d 575e d93c 08bc 9e3e 9b0a 9e3d
000002d0: 0861 40bd 7632 1f3d ea9a d93d a94c 6abd
000002e0: 375f dd3d 8bb7 523e 7bf0 ea3b 88f0 543c
000002f0: b676 663d 5b2d 1e3d 0b07 dc3d 1444 763d
00000300: 2369 333d 4489 86bb 53ec 573d e8a4 d6bd
00000310: cec2 9d3b ae33 1ebe c7fb a7bd a7e3 80bc
00000320: cb2d 35be 43e5 9abd 1d57 8f3d dd30 c03d
00000330: 2c3f 41be fa04 2dbe c99a 42be db70 09be
00000340: 6ade fdbc 8019 093e 4e70 7fbe e8d0 9fbe
00000350: 850e b3be e7e9 06be 4d8e 56bd 7d41 503e
00000360: 7861 58bc 8406 12be a6c2 f93a c9c1 2dbe
00000370: 6a92 7dbe 859f 883c f032 68be 1fb5 9bbe
00000380: 6052 aebe 48a0 a7bb 0be0 b23d a0eb ac3d
00000390: 8a2a a8be 1d4a c0be 5bb4 61be 0df5 c4be
000003a0: 3bcb bbbe 9688 7abe 4ef4 713b 78c2 f63c
000003b0: e93c 843d 6228 75be 2ce6 52be c850 97be
000003c0: f4be 9f3d 266e 4c3c 2968 c33d 6133 06be
000003d0: 6aaf 9bbd 0054 bbbd 9799 88be a84e 5bbe
000003e0: cc31 6cbe 9318 503d 8108 ddbc ca73 a1bc
000003f0: da31 51bd dd5d 423d 79e9 babd e7b0 12be
0.16139045 0.13127828 0.04215803 0.08654711 0.03481511 -0.109504744 -0.13204451 0.23996693
0.13470928 -0.11781268 0.08249003 0.060439143 -0.012304619 0.35342583 0.20056923 -0.040873557
0.1091422 0.10774157 -0.32013524 0.029747425 -0.20250258 0.00051634887 -0.055157214 0.21858542
-0.15987529 -0.14771952 -0.1148677 -0.1769175 0.03270681 -0.045829244 -0.023711044 -0.003837936
0.119329095 -0.09126117 0.0011323857 0.15048559 -0.057932176 0.23752713 0.1025996 -0.23787
0.22140148 0.16641663 -0.021408385 0.2442351 0.19811252 -0.023091564 0.31456554 -0.042890526
0.18673918 0.09810097 0.037123915 -0.127774 -0.11057645 0.12224641 -0.18845221 -0.23902847
-0.19871566 -0.001475009 0.12155197 -0.0088731265 -0.08338242 0.1750894 0.024067637 -0.030180281
0.23997849 -0.03037822 0.16354516 0.023913344 0.10239259 -0.11546124 0.13337372 -0.055123966
-0.02092917 0.3302945 0.17588483 0.107137755 0.0029549387 0.2841599 -0.17205313 0.5344629
0.07355703 0.0027280084 0.14759855 0.11805772 0.09912 -0.06469608 -0.014232089 -0.13469903
0.16201487 0.0071945544 0.14535515 0.13173851 0.071611576 -0.08328337 -0.17582159 -0.08460227
0.0673008 -0.011774635 0.05409089 -0.18883032 -0.07501084 0.09362104 0.031913802 -0.062289875
0.15668385 0.04232868 -0.21875432 -0.02138293 -0.12268131 0.04918593 0.037394077 0.012251164
0.15509148 0.03051381 -0.18487501 -0.16595057 -0.061761133 -0.2248278 -0.0038724805 -0.105628505
-0.04126861 -0.07863314 -0.08337622 -0.14546123 -0.117338486 -0.11833933 -0.055631183 -0.055618346
0.14452459 -0.077130005 0.12370573 0.11652674 0.24479406 0.41859624 0.16890995 -0.2900524
0.013853644 -0.23435967 -0.13464849 -0.05883104 0.047874376 -0.2688272 0.09471131 -0.0136082815
0.018654563 0.21303484 0.15927634 0.123144366 0.49157363 -0.20320562 -0.010453302 -0.0029199682
0.03298976 -0.07226964 0.19346096 -0.15718478 0.04032661 0.038716126 -0.00043109478 -0.14479183
0.0007776631 -0.048585013 0.061863266 -0.08939321 0.22508274 -0.07398766 0.03442047 0.23208053
-0.044737548 -0.113015115 -0.13865975 -0.12644762 0.1202084 -0.15082543 -0.111087516 -0.05222284
0.04431901 0.026534243 0.3100283 0.077168666 -0.046967536 0.038866483 0.10625251 -0.057202015
0.108091764 0.20577829 0.007169781 0.0129968 0.056265555 0.038617473 0.10743531 0.060123518
0.043801438 -0.004105719 0.05271561 -0.10480672 0.0048144823 -0.15449402 -0.082023196 -0.015733553
-0.1769325 -0.075632595 0.069990374 0.0938432 -0.18871754 -0.1689643 -0.19004358 -0.13421957
-0.030989844 0.13388634 -0.24945185 -0.3121407 -0.34972015 -0.13175164 -0.052381802 0.20337482
-0.013206832 -0.14260298 0.0019055202 -0.16968454 -0.24762884 0.016677627 -0.22675681 -0.30411622
-0.34047222 -0.0051155426 0.08734139 0.084433794 -0.32844955 -0.37556544 -0.22041456 -0.3846821
-0.3667849 -0.24466166 0.0036919299 0.030122027 0.0645693 -0.23941186 -0.20595616 -0.2955382
0.07800093 0.012477433 0.09541351 -0.13105537 -0.07601817 -0.09146881 -0.2667968 -0.21416724
-0.23065871 0.050804686 -0.026981594 -0.019708533 -0.051072933 0.047452796 -0.091265626 -0.14325295

encoder_lstm.weight_hh_l0 f4 [256, 64]
00000000: 079f b1bd d9de 853e 457d 59bc 45c9 dd3c
00000010: 3738 55be 4f3d 13bd 8c12 91bd b0a3 d33c
00000020: 27e3 a8bd 4eac 1e3d 3754 463e 46a7 4b3c
00000030: 1f90 1f3e 4dc7 f7bd f6da c13d 5e76 5c3d
00000040: fbc3 adbd b442 cfbd 50a4 b93d 6db2 e1ba
00000050: b4d0 b8bd 4a51 f83d 6beb 1b3d 37a6 f53d
00000060: c93c ff3d e81a 83bc ac95 813e 6db9 85bd
00000070: 7922 07be fd07 493d 3f50 bc3c ff12 323e
00000080: 4b78 873c b383 c93d 8337 d8bd 87ac 7dbe
00000090: 1b77 20bd 2db8 7fbd 705c 0c3e 6d18 c53d
000000a0: e042 b23d 804a 29bd 9b21 30bd 6e29 473d
000000b0: 049d 663d 24f8 b83e ff9c f93d 9468 3f3d
000000c0: d369 98bd 78f7 4c3d 9fa5 47bd 629f 243e
000000d0: f31b 323e a14d 2b3e 2ccb b0bd db4e e4bd
000000e0: 29a2 49bd a196 93bd 082e 613d bfa9 8bbd
000000f0: 2d55 bf3d 4730 8bbb 7eb7 243e d159 8c3c
00000100: 63f9 2cbc 5a21 bcbd 9467 e5bd 0ad1 db3d
00000110: d15b acbd 6198 84bd 5e50 9a3d 1309 abbc
00000120: a9cb 613d 6a0a 68bd e839 fdbd d889 d0bd
00000130: 0b7e c6bd 37b9 cbbc 9783 583d 4f19 1e3c
00000140: ede7 723e c965 f43d a11d 51ba aa55 aebd
00000150: 0e92 d6bd 962f b23d 1d96 aabd be95 523d
00000160: 759b e43e 83d3 f23c dcbe 87bc f2e8 303e
00000170: f3e4 b43c 5ffe babd acc3 143e c7ca b7bd
00000180: 5c03 fdbc d617 d53d a0e1 7dbd 72b8 033d
00000190: 0a35 493a 7290 a1be b9fa 813c c8b7 fa3d
000001a0: 6ca9 733d 308c 223d a732 ebbc 54e0 66bc
000001b0: db30 5ebe 73c3 b8bd 6693 773d 34be 6e3b
000001c0: 63a1 d03d 7362 fcbb bb8b 703d 9c21 9f3c
000001d0: 8f0e 523d e2a8 c43d f4cc cdbb 03d2 d5bd
000001e0: e368 bfbd 11c7 0e3d 03f3 5bbd b3d0 fa3d
000001f0: 0acb 9e3c 7492 653d 93ba cf3d f345 143e
00000200: 8c47 683d 874e 7dbd 710b 87bd 5b62 01bd
00000210: 1361 353e bc1c 2b3d a90b 1b3e 918b 0cbc
00000220: 14e7 493d 12f8 0f3e cba1 2ebe 04f0 3cbc
00000230: 908a 3abd 047e 283d b234 b3bd 7918 133e
00000240: 99f0 503e cb8d dd3c f367 fc3c f113 7ebd
00000250: 1e86 37bd 2d4b b33d 03d0 e8bd 89a4 5dbc
00000260: f732 ff3e f2ba b53d be09 3abe f3a4 1c3d
00000270: c705 173e 58f6 1cbd ca53 af3d e63f d63d
00000280: 1bc8 38bd 095c 13be 4cf6 733d 5504 3bbd
00000290: 30a5 90bd 7083 c1bd 7e59 4ebd 01e2 97bc
000002a0: a84d 95bd 662d 8f3d 93bf 043c d0aa d5bc
000002b0: 432b 11bf 3d3f 9fbd 172d 16bd 2383 553d
000002c0: 73d7 03bd d855 d5bc 1c6b a8bd 80c1 19be
000002d0: f8a8 05be d552 e33c 6758 f1bc 7c04 0dbd
000002e0: 768d 153e 7f7a e33d 6661 333d 4221 11be
000002f0: ce28 afbd 3dd7 13bd 12c1 a53d 6ee5 023d
00000300: b292 b8bd 9b8c 3e3c 330d c3bd afbe 7cbc
00000310: b6b5 6fbd 1abe ce3d f163 3d3d 8e17 833c
00000320: 0a57 cc3c fa04 27bc 98bb 463d 1275 733d
00000330: fad1 113d f16c 07be 455d 063e 937c 7cbb
00000340: 5fa8 81bd 2e81 b33d f98a e23d 5ed8 dd3d
00000350: 912a c83c b0d7 33bd ccb1 e23d 1221 d13d
00000360: 34e6 e4bd 568f f13b eb90 a8bd c8ea 0c3d
00000370: 6da0 843d 87d8 a6bc f121 50bc 8d75 3b3d
00000380: ac63 81ba 2bae c5bd 7eac bf3d 495c b4bd
00000390: 0285 abbc 39e1 c13b ca15 eb3b d78f e4bd
000003a0: 4dfd 5e3d c6a0 31bd 5b93 3cbd 20e8 323d
000003b0: 1adf 9cbd d66c 12bd f03f 10bd e390 4dbc
000003c0: b91a febd a04b f0bc b64e 0c3d 058a bbbd
000003d0: 345a 9bbd 4b21 98b9 c2de 333b 170b 0d3d
000003e0: 8123 b9bd eb6a 103d 3db9 643d 2add bc3d
000003f0: 418d c6bd 5988 dfbc 9094 a9bd 6b90 e2bc
-0.0867291 0.26146582 -0.0132744955 0.027073512 -0.20822226 -0.03594714 -0.07083616 0.025834888
-0.08246451 0.03873854 0.19368063 0.012430018 0.15582322 -0.120985605 0.094655916 0.05382382
-0.08484646 -0.101201445 0.09064543 -0.0017219313 -0.09024182 0.1212488 0.03806631 0.119945936
0.12462766 -0.01600404 0.25309503 -0.06529508 -0.13196744 0.049079884 0.022987483 0.17390059
0.016536852 0.09839573 -0.10557463 -0.24772845 -0.039176088 -0.062431503 0.13707137 0.096237995
0.08704162 -0.041330814 -0.0430008 0.048623495 0.056302086 0.36126816 0.12188148 0.046730593
-0.07442059 0.050040692 -0.048741933 0.16076425 0.17393474 0.16728832 -0.08632502 -0.11147853
-0.049226914 -0.072064646 0.05497554 -0.06819486 0.09342418 -0.0042476985 0.16085622 0.017132672
-0.010557505 -0.09186049 -0.112013966 0.107332304 -0.0841595 -0.064743765 0.0753486 -0.02087835
0.055125866 -0.056650557 -0.1236456 -0.101825416 -0.096920095 -0.02486859 0.05285987 0.009649589
0.23721285 0.119334765 -0.00079771323 -0.08512433 -0.104770765 0.087004825 -0.08329413 0.051412337
0.44649854 0.029641872 -0.016570501 0.17276362 0.022081828 -0.09130549 0.14527768 -0.089742236
-0.030885391 0.10404937 -0.06198275 0.032158323 0.0007675445 -0.31555516 0.015866624 0.12242085
0.059487745 0.039684474 -0.028710676 -0.01409157 -0.21698324 -0.09021654 0.060443304 0.0036429288
0.10187032 -0.0077021657 0.058727007 0.019425206 0.051283415 0.09602524 -0.006280536 -0.10440447
-0.093461774 0.034857813 -0.05369855 0.122468375 0.019383926 0.05604787 0.10143008 0.14479809
0.056708857 -0.061842468 -0.06593979 -0.03158794 0.17712812 0.04177545 0.15141167 -0.008578197
0.04929264 0.14059475 -0.17053907 -0.011531834 -0.0455423 0.041135803 -0.08750285 0.14364804
0.2040428 0.027045151 0.030811286 -0.062030736 -0.04480564 0.08754573 -0.113678 -0.013527998
0.4984357 0.088735476 -0.18167779 0.038243245 0.14748298 -0.03832087 0.08560903 0.104614064
-0.04511271 -0.14390577 0.05956106 -0.04565843 -0.07062757 -0.09448898 -0.050378315 -0.018540384
-0.072902024 0.06991081 0.0081023155 -0.026082426 -0.5670664 -0.077757336 -0.036664095 0.052127015
-0.03218789 -0.02604191 -0.082235545 -0.1501522 -0.13052738 0.027749458 -0.029461099 -0.034428105
0.14604744 0.11107349 0.04379406 -0.14172843 -0.08552705 -0.03609394 0.08093466 0.031957082
-0.09012355 0.011630203 -0.09524002 -0.015426322 -0.058522902 0.10094853 0.04623789 0.016002443
0.024943847 -0.010194058 0.048518747 0.05943782 0.03560064 -0.13225152 0.13121517 -0.00385264
-0.06330942 0.087648734 0.11061663 0.108322844 0.02443436 -0.043906868 0.11069068 0.10211386
-0.1117672 0.0073718233 -0.08230766 0.034403592 0.06475911 -0.02036692 -0.012703405 0.045766402
-0.0009871623 -0.096523605 0.09359072 -0.088066645 -0.020937447 0.005916741 0.0071742283 -0.11160248
0.054440785 -0.043366216 -0.046038967 0.043678403 -0.07659741 -0.035748325 -0.035217226 -0.012546751
-0.12407441 -0.029332936 0.034254752 -0.091571845 -0.07585564 -0.00029016504 0.0027446006 0.034434404
-0.09039975 0.035258215 0.05584072 0.09221871 -0.09694911 -0.027286695 -0.08280289 -0.027656754

encoder_lstm.bias_ih_l0 f4 [256]
00000000: 24d0 413d 95eb dcbd 95c1 40bd 934a 493d
00000010: c2a4 a23c 2a18 8bbd a115 c5bd baac f5bc
00000020: 513c 2ebe acb3 b83c 3237 103e e7f6 09be
00000030: e15a a53d c4a4 903b 1329 493d 4cc0 883d
00000040: be00 1d3e b808 ba3d 1385 63be 03e8 30bd
00000050: ba65 ff3c 1444 d03d ca91 c43d 2d6f f7bd
00000060: 8bae 4d3e 4410 9d3e c07b c73d a331 da3d
00000070: 49d7 fb3d 6e2e 8fbd dbd7 a23d d8ba a9bd
00000080: 8614 c7bd a83b 773e 46a1 233b 77da 513e
00000090: 26f2 b2ba f692 44bc cee8 f33c ab32 273b
000000a0: 7023 31bb 7c64 273d 8013 f5bd 249f 923d
000000b0: 5e33 5a3e cb96 48be 8223 2c3d a11c cebd
000000c0: fddd 453c 6bdc 4a3d d5a2 a43d 4255 ad3d
000000d0: 3862 22bc a0b6 75ba ed7c d93d e490 cfbd
000000e0: 6a53 3ebd d0f6 803d 9f14 adbc bf47 fe3d
000000f0: 9bb5 c53d 403c c7bc 4a16 fe3d 5516 1e3e
00000100: c0d9 a53d e773 1ebd c963 3ebd 4960 433c
00000110: e995 98be 0149 7bbd 12f9 8fbe e8c7 85bd
00000120: 1c78 d4bd f37c 08be 62b8 38be bb57 13be
00000130: ffd7 1dbe 9fc1 38be c88f ebbd 7bb6 62be
00000140: e46a 3abd 16d1 c7bd 3bdf 99be 519a b73d
00000150: ec3d e03c 1d6e 28bc 877c 2dbe d1f8 13be
00000160: 37bd 5dbe 2f7f 03bf 6ae7 17be 187f 92be
00000170: 1448 64bc 2d0d 6cbe d110 15be 7561 22be
00000180: deab e2bd bc8a 13be 1166 a23d 1634 97bd
00000190: 1487 9c3d 9ba7 22bd f036 9abc bff4 e6bd
000001a0: 201a 92bc 634b 0fbe fbbb 853d 146b 5dbc
000001b0: 8cd5 6dbd d7a2 a43d 8633 5ebd 7ac7 9ebe
000001c0: 71e6 19be 0e3c 4c3c bf31 2d3d c37d 17bb
000001d0: 42b6 43be 2ed4 eebd 1136 0fbe e2e6 dbbd
000001e0: fafa f43b 85dd b6bd 70fc c73d 0b33 b3bd
000001f0: d3fe f4bd 93d5 f4bd 57c9 f13c ac80 c7bc
00000200: 9f4e dd3d 4330 a63d 2ac8 b43c 25b9 81bd
00000210: 7358 36bb 5aa5 203d 971d 963d a64a b53d
00000220: ae72 c2bc adc2 89bd 3dab 063e b49d 2e3d
00000230: 70bc 813d fc38 7bbd e18c 073d b892 753b
00000240: 88c1 173e d678 ceba 2d00 b23d 8c0e 033c
00000250: 8d9d 14bd 36b8 363d 84e8 8a3d 34b5 0f3d
00000260: 9df6 99bd bde7 963d 3b96 01bc 9952 733d
00000270: e18a bcbd 560c 583d 8a4f c13d 2b4d c83c
00000280: b94d 8c3d 2ecc 2b3d 755e 14be 8416 d0bd
00000290: a541 203d 8dd1 26be 4855 ed3b 8b2b 81bd
000002a0: 38c6 b5bd 9666 913c 01a3 413d 8108 84bc
000002b0: 9658 c5bd 9bdd f2bd f255 35bd 8363 253c
000002c0: 17de 643d 5a28 00be 55da 04bd 5689 b5bc
000002d0: fab7 b33d a022 a23d 71e2 83bd dd7a 9fbd
000002e0: d66c 443d d470 873c 49be 7ebd 0345 0dbd
000002f0: 1f44 5d3d cbcf b43d c62b 1b3e 5da6 33bd
00000300: 0580 e03c d1d6 003d de0a c93d 25d3 3a3d
00000310: 7334 6c3d 3bfd c03c 7214 51be 892c 103e
00000320: 33f6 8eb8 935a f3bd 216c 063e 8363 d93d
00000330: 5398 cb3d f1a2 1339 c71e 9c3d 3236 f13b
00000340: 5b99 8c3d 85da c83c 252d e2bd ed9c 803d
00000350: d5be d6bd e615 e43d 373a 9f3d 633c 20be
00000360: 5424 343e 2c98 9d3e fe51 103e 8c15 4b3e
00000370: cdef b93d c3f3 c2bd 397d fb3c 10f5 53be
00000380: c6e7 e6bd 8f10 703d 0c41 08bd 1242 ea3c
00000390: 6b66 d73b 5bb3 baba ba0e a5bd 3180 6a3a
000003a0: 9aa9 94bc 09d1 3fbe 5784 d5bd 5010 11be
000003b0: 3316 b53e 58b6 a7bd f751 07be cd8f f2bd
000003c0: e26f d53d 5069 0b3d 50e4 d13d afae f53d
000003d0: 901a d13c 5b68 b2bd 3f60 1a3e 143e a13c
000003e0: 3008 72bd d12c 07bc 2b39 f3bd 01e2 263e
000003f0: a417 bd3c 7286 bf3d 684a 893d 3522 183e
0.04731764 -0.10787121 -0.047059614 0.049143385 0.019853953 -0.06791718 -0.09623266 -0.029989589
-0.17015196 0.022546612 0.14083555 -0.13473092 0.080739744 0.004414173 0.049111437 0.06677303
0.15332314 0.09083694 -0.22218733 -0.043190014 0.031176437 0.10169235 0.095981196 -0.12081752
0.20086114 0.30676472 0.097404 0.10653999 0.12296922 -0.06991278 0.079513274 -0.08287591
-0.097207114 0.24143851 0.0024967953 0.20493494 -0.0013652488 -0.011997929 0.029774096 0.0025512378
-0.002702918 0.040867314 -0.1196661 0.0715926 0.21308658 -0.19588773 0.04202605 -0.10064054
0.012076852 0.049526613 0.0803887 0.08463527 -0.0099111125 -0.00093732215 0.10619531 -0.101350576
-0.04646627 0.06297076 -0.021127997 0.12416028 0.09653779 -0.024320722 0.12406595 0.15438206
0.08098173 -0.03868475 -0.04648188 0.011924812 -0.29801872 -0.06134892 -0.28119713 -0.0653227
-0.103744715 -0.13328914 -0.18039086 -0.14388935 -0.15414427 -0.1804261 -0.115020335 -0.22139923
-0.045512095 -0.09756677 -0.30053124 0.089649804 0.027373277 -0.010280159 -0.16942035 -0.14450385
-0.21654211 -0.5136594 -0.14834371 -0.2861259 -0.0139332 -0.23051901 -0.14557196 -0.1585749
-0.11067937 -0.14408392 0.07929624 -0.073829815 0.076429516 -0.039710622 -0.018825024 -0.1127715
-0.017834723 -0.13993602 0.06529995 -0.013514299 -0.058064982 0.08038872 -0.054248355 -0.31011564
-0.15029313 0.01246549 0.04228377 -0.0023115731 -0.19112495 -0.11661564 -0.13985468 -0.10737397
0.007476208 -0.0892897 0.097649455 -0.0874997 -0.11962666 -0.119547985 0.029514952 -0.024353348
0.108060114 0.08114674 0.022068102 -0.06334142 -0.0027823716 0.03922019 0.073298626 0.08852129
-0.023736324 -0.067265846 0.1315126 0.042630866 0.0633477 -0.06133364 0.033093337 0.0037471484
0.1481992 -0.0015752565 0.0869144 0.007999074 -0.036283065 0.04460927 0.0678263 0.03508492
-0.07517741 0.07368419 -0.007909353 0.059404943 -0.092061765 0.05274614 0.09438999 0.024450859
0.06850762 0.041942768 -0.14489157 -0.101605445 0.039125104 -0.16290875 0.0072428323 -0.06307133
-0.08875698 0.017749112 0.047274593 -0.016117336 -0.09636037 -0.11858674 -0.044271417 0.010094526
0.055875864 -0.12515393 -0.03243478 -0.022160213 0.08775325 0.079167604 -0.06439675 -0.07787106
0.047955357 0.016533293 -0.06219319 -0.034489643 0.054020043 0.08828696 0.15153417 -0.04385983
0.027404794 0.031454865 0.09816526 0.04561152 0.057667207 0.02355825 -0.20417956 0.14079489
-6.816946e-05 -0.1188251 0.13127185 0.106146835 0.09941163 0.00014079713 0.07623058 0.007361197
0.06865188 0.02451826 -0.11043767 0.06279931 -0.10485617 0.11136989 0.077747755 -0.15648036
0.17591983 0.3078016 0.14093778 0.19832438 0.090789415 -0.0951915 0.03069936 -0.20698953
-0.11274676 0.05860954 -0.03326516 0.028595958 0.0065734885 -0.0014244126 -0.080594495 0.00089454936
-0.018147279 -0.18732084 -0.104256324 -0.14166379 0.353685 -0.08189076 -0.13214861 -0.11843834
0.104217306 0.03403598 0.10248625 0.11996209 0.025525361 -0.087113105 0.15075777 0.019682921
-0.05908984 -0.008250431 -0.11876138 0.16297151 0.023082562 0.09351815 0.06703645 0.14856799

encoder_lstm.bias_hh_l0 f4 [256]
00000000: 302b 38bc e693 82bc d3c4 98bd 55f6 ac3d
00000010: 5b9e b93d fe6b eabd 83b5 a1bd 76b8 453d
00000020: 1b43 e0bd 194b da3d 4b8f ac3c 2fe6 aabd
00000030: fc02 b33c 96c2 eb3d dc55 cebd e049 d03c
00000040: 3b7c 1ebc d6e8 c9bd aec5 8abe e29e acbd
00000050: adf5 d43c 5ee4 f33d 825e f83d e7d6 9bbd
00000060: aa5c 773e 784c 1d3e 16a5 97bd 5bc0 a53d
00000070: d93b 96bd cd56 263d 1793 473e b161 c6bc
00000080: ab48 acbd 15f4 493e f5b6 313e 69f8 d53d
00000090: 8f25 41bd 435e 75bd b0bf c4bd 23ea 02bd
000000a0: ecea d73b 450b 44be 9b43 64bc f512 e5bb
000000b0: ce85 793e 38c2 e8bd f7a9 ba3d 657f 03bc
000000c0: 7c29 9a3c b310 5e3d a485 6a3d 26ae ac3d
000000d0: ed55 dfbd 392b 1abe 3c1f f33c 634a bcbc
000000e0: c106 81bd 63bb 9c3b 55a1 8abd e598 8c3d
000000f0: f066 333d 4254 b0bd bd59 6dbc e087 89bd
00000100: b4d6 ebbd bd50 cebc effd b1bd f95b ad3d
00000110: 1531 74bd 0c8f ecbd 5251 8ebe ae92 97bc
00000120: 8c4e 69bd c17e 54be d4c7 2dbe 23d9 f5bd
00000130: f5e7 39be 4050 7fbe 2856 4a3c f69b 07bd
00000140: 6858 8ebd a230 353d 013f 80be 7a8f 02be
00000150: 6611 e4bd f2f3 3abd fa41 acbd 34a4 2ebe
00000160: f6fc 9abe b7c1 e2be 426e 423d 835a 81be
00000170: 4e60 1fbe 9f0b 63be 6892 f4bd 6490 92be
00000180: 064d 99bd 5f61 f8bc 4f2f 243a 9b56 82be
00000190: d053 d0bd 31d3 e6bc fcc6 50bc 42b9 94bd
000001a0: da72 21be c6ce 45bd 6c0e 9e3d e105 a8bd
000001b0: d7a8 ccbc 2e81 463e 220a 6839 03b9 2cbe
000001c0: 12a4 bebe ab10 45be 65fa 8a3d 3ea5 1bbd
000001d0: 0497 053d c6c5 22bb 7b2c 1bbe 75cd 123c
000001e0: 305a 47be dc72 29be f250 7a3d 4553 b43d
000001f0: 208d 6fba 9a69 1e3d 3b06 65bb 494f 273c
00000200: c5f9 93bd c9be 0c3d c1ec 1cbd 400a 613c
00000210: a04d a2bd ff1e bcbc aea0 28bd e70a 5c3d
00000220: 1ed5 143c f564 0d3d 79db 09bd 3261 10bd
00000230: cded 4e3d 5ee7 3abd f59d 1b3d 70f7 263d
00000240: 5303 d6bc 38ec 363c d397 a6bd 0f35 b6bd
00000250: dfb1 943d 9b7b d83c 4050 c33d aa23 e63c
00000260: d4ee 893b 4f09 8e3d 894c f63c 34ff ac3d
00000270: 9df7 c9bd d2e7 7a3d 133e fc3c 46b7 6f3c
00000280: 143e 6dbd 3a9b a33d d3d5 ad3c 8e14 b4bd
00000290: 3900 5b3d d086 853d be3b c03c 1b0d d7bc
000002a0: 7ef8 a63c dac2 0dbd 4151 81bd abe8 883d
000002b0: 9174 32bd 1d9d be3d 7ef6 093d ff5e 0d3c
000002c0: e8f7 22be 2b7a 073d e58b 873d 1d1d 4ebd
000002d0: bc1c 973d 0b51 323d bdd9 c4bd 122a 803d
000002e0: bca9 a0bd 9424 bdbd c453 80bc ff94 c33d
000002f0: a745 0b3d ab85 253d d8fd 35bd 7e1e 9d3d
00000300: f490 493d 2624 00be 8834 a4bd 1bb6 463d
00000310: f4c0 88bc f50e b63c 1e18 42bd d5ef 06bb
00000320: 876f ebb9 dcb7 493d 12aa 2d3d 01a9 bfbd
00000330: 637c 0fbc b658 bbbc 973b 643c 9cb3 f13c
00000340: 66e7 8e3d f647 173d eb59 5dbe 5896 353d
00000350: 77ee eb3d 426a 343e e572 823e 765b bbbd
00000360: fa5b 763e 0744 513e fa9f a53d 3e88 703e
00000370: 6536 0e3d 1f1e 84bc f2c1 e63d 4e9d 69be
00000380: a650 edbd 71b8 eb3d 8220 363d cad9 da3d
00000390: 7a46 373d db04 c53d 3766 64bd f6b5 543d
000003a0: 1982 0abd acdb 4ebd a1be b2bd 91fc ddbd
000003b0: cf10 903e 9b32 fcbb f3b4 a7bc 5558 313d
000003c0: 3d6b 533e 0d34 03bc de3e 66bd 7501 973d
000003d0: a62d 2cbc edaf c1bc f494 1a3c 9339 5c3d
000003e0: b10b 11be a36a 77bc 11bc e0bd 5096 bb3d
000003f0: 0687 6a3d c4f1 a53d 6fc2 a8bd e708 e93d
-0.011240765 -0.015939664 -0.07459416 0.084454216 0.09063407 -0.11446379 -0.07895949 0.04827162
-0.10950299 0.10658855 0.021064421 -0.08344685 0.021852009 0.11511724 -0.1007497 0.025425851
-0.009673174 -0.09858863 -0.27103943 -0.08428742 0.025996054 0.11908792 0.12127401 -0.07609349
0.24156442 0.15361202 -0.074045345 0.080933295 -0.07335634 0.040610123 0.19489704 -0.024216505
-0.08412298 0.19722016 0.17354949 0.10447771 -0.04715496 -0.059904348 -0.09606874 -0.03196157
0.006589284 -0.19144924 -0.013932134 -0.0069907852 0.24367449 -0.11365169 0.091144495 -0.008025979
0.01881861 0.054215144 0.057256356 0.08431654 -0.10905061 -0.1505555 0.02967798 -0.02298469
-0.06300116 0.0047830804 -0.06769053 0.068651 0.04379934 -0.08609821 -0.014486727 -0.06715369
-0.11515561 -0.025184983 -0.08691012 0.08464808 -0.05961712 -0.115507215 -0.27796417 -0.01850256
-0.056959674 -0.20751478 -0.1697076 -0.12004306 -0.18154891 -0.24932957 0.012349643 -0.03310772
-0.06950456 0.044235833 -0.25048068 -0.12750044 -0.11136131 -0.0456428 -0.084110215 -0.17054826
-0.3027112 -0.44288418 0.04746843 -0.25264367 -0.15564081 -0.22172402 -0.11941987 -0.28625786
-0.07485394 -0.030319868 0.0006263153 -0.254567 -0.10172236 -0.028176876 -0.012742754 -0.072618976
-0.15766469 -0.048292898 0.077175945 -0.08204246 -0.024982853 0.19385216 0.00022129019 -0.16867451
-0.3723455 -0.1924464 0.0678604 -0.037999384 0.032614723 -0.002483712 -0.15153687 0.008960118
-0.19467998 -0.16547722 0.06111235 0.08804945 -0.0009138156 0.03867493 -0.003494634 0.010211774
-0.07225374 0.034361634 -0.038311724 0.013735354 -0.07924962 -0.022963999 -0.04116886 0.053721335
0.009084014 0.03452011 -0.03365657 -0.035248943 0.050519753 -0.045630805 0.037992436 0.04076332
-0.026124632 0.011164717 -0.08134427 -0.08896839 0.07260489 0.026426127 0.09536791 0.028093178
0.0042093787 0.06935369 0.030065792 0.08447114 -0.098616816 0.061256237 0.030791318 0.014631098
-0.05792053 0.079885915 0.021220123 -0.08792983 0.05346701 0.06519854 0.023465987 -0.026251366
0.020382162 -0.034609653 -0.06314326 0.06685003 -0.043568198 0.09307311 0.03368234 0.008628606
-0.15914881 0.033075493 0.0661848 -0.050320733 0.073785275 0.04353432 -0.09611843 0.06258024
-0.07844874 -0.09235492 -0.015664943 0.09549903 0.034001973 0.04041068 -0.044431537 0.076718315
0.049210504 -0.1251379 -0.08017832 0.048513513 -0.01669357 0.022223929 -0.04738628 -0.0020589728
-0.00044905787 0.049247608 0.04239852 -0.09358407 -0.008757683 -0.02286945 0.013930223 0.02950459
0.069777295 0.03693386 -0.21616332 0.044332832 0.11520093 0.17618659 0.25478283 -0.09148304
0.24058524 0.20436107 0.08087154 0.23489472 0.034719843 -0.016127644 0.11267461 -0.22813913
-0.11587648 0.11509789 0.044464596 0.10686071 0.044744946 0.09620067 -0.055761542 0.051931344
-0.033815477 -0.050502464 -0.08727766 -0.10839189 0.28137824 -0.0076964623 -0.020472025 0.04329713
0.20646377 -0.008008015 -0.0562123 0.07373325 -0.01050893 -0.023643458 0.009434927 0.053765845
-0.14164616 -0.015101108 -0.10973371 0.09159529 0.057257675 0.08102754 -0.0824021 0.11378651

encoder_lstm.weight_ih_l1 f4 [256, 64]
00000000: 9415 13be aae1 0dbe 07d1 2b3e a825 ef3c
00000010: a885 ee3d 09e2 c23d b1e2 c5bc cb01 2bbe
00000020: a518 c63d 6701 273d e5e2 93bd 0da8 cbbb
00000030: bbb0 ecbd d6a7 853d bdb8 29bd 6aa2 05be
00000040: 96e0 afbd 14d4 85bc 6268 773c fe80 373c
00000050: 2f57 863d 36b4 3ebe 88cd 1dbe 6ca1 c8bd
00000060: dac8 c4bd c809 f9bd 370f 933d 4927 14be
00000070: e7f8 303e de41 45be 0431 61be 1bc3 d6bd
00000080: 2b0b 8fbd 36e8 48be e1a8 f03d 03a7 163e
00000090: 9b42 1ebc f7ef 2c3e fa6f efbc 45e4 a9bd
000000a0: 93f9 9fba 79f4 b03d ae6b 4c3d 6f6e ab3c
000000b0: becf 3f3e e2cd 373e 35a0 c23d 52a8 27bc
000000c0: ae11 c93d 0348 b13d b719 30bd d77c 0e3e
000000d0: 7d13 28be 46cd 533d a809 8e3d aa4d 663d
000000e0: c976 d63b 41ca adbd 9175 20bd b798 a6bd
000000f0: 7fd0 6bbd 837b deba 23c2 43bb 9b54 793d
00000100: cdca ffbc 1fbd 92bd bd1d 063e 002b 83bd
00000110: 0a42 05be 4313 12bd a794 723d 15c8 ce3d
00000120: b677 a5bd ed2f 9dbd ae79 cf3b 9fbd 6cbd
00000130: c4c5 f33c 0ae5 833b 90e8 1fbd 4280 06bd
00000140: 6ee7 6c3e 0954 71bd 8601 a9bd 252b 223d
00000150: 9bb2 593d f4f7 73bc dc46 063e fe9e 25bd
00000160: 6a89 0ebe 37b8 cbbd 4707 89bd 1a75 e53c
00000170: f239 343d 3c07 afbc 068f b83d 51d5 98bd
00000180: 69cc b33d 732f 063e 075b bdbd 5ade acbd
00000190: 161d 6a3d 62a8 6abe faaa b73d a268 de3d
000001a0: 4a5b 86bb 6020 8ebd 7d2a 223d c82e d13d
000001b0: 4e0a 20bd a5c4 9d3c 4319 6c3d 0833 a93d
000001c0: 93b4 88bd ee7d 6abd 51d6 7a3c fa67 65bd
000001d0: 5e14 6e3d 7096 c2bd 3904 acbb 3008 9b3c
000001e0: dc88 fbbd e5e5 55bd 08ec 36bd 601e 2a3c
000001f0: 6f0e bf3c 8251 d5bc fe6c a83d 071a df3d
00000200: 3ebd 27bc 3875 6e3d 6baa dabd c3e2 ddbd
00000210: 2981 7a3b 730d 213e 3686 283b 8494 af3b
00000220: ce71 15bc 5dde 333e 325b bdbd c09d b3b6
00000230: 10d3 263e fccb b4bd 168a ee3c 5383 d9bd
00000240: b8f6 2d3e 642d 2bbe db2d 53bd cc40 1dbe
00000250: 7d8c 81be d21a 823c 7a26 ab3b 2341 dc3c
00000260: 9829 3b3f 2b51 123e 50d5 9b3c 739f 81bd
00000270: ae10 783b e2a1 0bbe a5c2 9e3e 4230 0b3e
00000280: c19b 06bd e308 e1be 2d71 ffbd 1644 de3d
00000290: 26f3 04bd 23b4 373e d5e6 4fbc 846c 643e
000002a0: 0b44 0b3c 9dcf 1f3d 2cec 75bd 9b4a 8f3d
000002b0: 3a3e 27be f08f 5b3e 008c f8bc 725a 743e
000002c0: 8e85 e73e f5a8 4c3e a3dc e63c 4018 ac3d
000002d0: 123e a63c 70e6 39bd 9a11 d23c bb99 983c
000002e0: 5784 c3bb fa63 fd3d aa4a c8bd 9663 a1bd
000002f0: 7517 fe3d a984 963d 6094 22bb d991 7dbd
00000300: f71d 933d 3af1 78bd 8809 583d 8ee3 ca3d
00000310: 9fe9 b83d 6483 a33c 33fd c9bd 3cba f9bc
00000320: d991 033e 80c9 853c a373 e83d 4d59 e23d
00000330: 197b 03be dba6 0fbc c4da d13d bec5 17be
00000340: 8a36 8f3d 7c2f 69bd 9aba 8a3d 4c43 a63c
00000350: 1323 a93c 9eb1 843d 5110 1cbd 1fbd 2ebd
00000360: 99cd 20be 599e ab3d 66ce 833d 8d5d 913c
00000370: 3a9c a5bd 3c82 e3bc a805 c43d b79a 233c
00000380: 24b4 bd3d dec1 4ebd 1523 0ebe 3ed4 acbd
00000390: bd01 1abe 9e6a 04be 6768 6fbb e228 8a3d
000003a0: 8eda 153e 5274 463d cb86 b63d c57a 04bd
000003b0: b2fd b4bd 62a9 aabd 467b 903d e5b0 363d
000003c0: 3dfb c6bd 7f46 dcbd 2a17 8b3d d411 c5bd
000003d0: 2f42 793d c1e3 14be 1330 24bd 8dc3 d23c
000003e0: 16dc 96bd 8a34 e13d 8776 8a3d e9f8 0c3e
000003f0: a38d 233e 484b 2cbc 865f aa3c 572a 043e
-0.143637 -0.13855615 0.16778956 0.02919276 0.11646587 0.09515769 -0.024155946 -0.16699903
0.09672669 0.04077282 -0.07221011 -0.0062151016 -0.11557146 0.06526153 -0.041435946 -0.13050237
-0.08587758 -0.016336478 0.01510057 0.011200188 0.06559598 -0.18623433 -0.15410435 -0.09796414
-0.09608622 -0.12160069 0.071806364 -0.14468111 0.17282449 -0.19263408 -0.21991354 -0.10486432
-0.06984552 -0.19619831 0.11750961 0.14712147 -0.009659435 0.16888414 -0.0292282 -0.08295492
-0.0012205116 0.086403795 0.04990738 0.020926682 0.18731591 0.17949632 0.09503213 -0.010233002
0.09817825 0.08656313 -0.042993274 0.1391481 -0.16413684 0.051709436 0.069354355 0.05622641
0.006544922 -0.084858425 -0.03917462 -0.08134597 -0.057571884 -0.0016974065 -0.0029870353 0.0608717
-0.031224633 -0.07164978 0.13097282 -0.06404686 -0.13013473 -0.0356629 0.059223797 0.10096756
-0.08079474 -0.07675157 0.006331644 -0.057798024 0.029757388 0.0040251063 -0.03904015 -0.03283716
0.23135158 -0.058918033 -0.08252244 0.039591927 0.053148847 -0.01489066 0.13112968 -0.04043483
-0.13919607 -0.099472456 -0.06690841 0.02800994 0.044000573 -0.021365754 0.090116546 -0.07462562
0.087792225 0.13104038 -0.09245878 -0.08440848 0.057156645 -0.22915795 0.08968158 0.10859801
-0.004100238 -0.06939769 0.0395913 0.10214001 -0.039072327 0.019258806 0.05764128 0.082616866
-0.06675067 -0.057249002 0.015309886 -0.056007363 0.058124892 -0.0950135 -0.005249527 0.018924803
-0.12281963 -0.052221198 -0.04465869 0.0103832185 0.023322312 -0.026039843 0.082239136 0.10893636
-0.01023799 0.058217257 -0.10677036 -0.10834267 0.0038223958 0.15727787 0.0025714762 0.0053582806
-0.009121371 0.17565294 -0.0924591 -5.35298e-06 0.16291451 -0.088279694 0.029118579 -0.10620751
0.16988647 -0.16716534 -0.051557403 -0.1535675 -0.25302497 0.01588193 0.0052230926 0.026886528
0.7311034 0.14288776 0.019022614 -0.06329241 0.0037851739 -0.13635972 0.31007877 0.13592628
-0.032863382 -0.43952093 -0.124727584 0.1085283 -0.032458447 0.1793981 -0.012689312 0.2230702
0.008500109 0.039016355 -0.060039684 0.06996652 -0.16332331 0.21441627 -0.030340195 0.23862627
0.45219082 0.19986327 0.02818138 0.08403063 0.02029327 -0.045385778 0.025643159 0.018627992
-0.005966704 0.12372585 -0.09779866 -0.07880323 0.12406818 0.07349522 -0.0024807677 -0.06190667
0.0718345 -0.060776927 0.052743465 0.09906684 0.09028935 0.019960113 -0.09862747 -0.030484311
0.12848605 0.016331434 0.11350181 0.11052189 -0.12839927 -0.008767809 0.10246804 -0.14821526
0.069928244 -0.05693005 0.06773873 0.020295762 0.020646608 0.0647919 -0.038101498 -0.04266083
-0.1570343 0.08379812 0.06435852 0.017744804 -0.080864385 -0.027772062 0.09571391 0.009985617
0.09262875 -0.050477855 -0.1388057 -0.084389195 -0.15039726 -0.12931296 -0.0036530735 0.06746079
0.14634153 0.048450775 0.089124285 -0.032343645 -0.08837451 -0.083330885 0.070547625 0.044602294
-0.09715889 -0.107556336 0.067915276 -0.09622541 0.060854133 -0.14540006 -0.04008491 0.025728012
-0.07366197 0.10996349 0.067608885 0.13766827 0.15971999 -0.010515995 0.020797502 0.12906776

encoder_lstm.weight_hh_l1 f4 [256, 64]
00000000: 50e6 a5bd 0702 773d 48a9 4ebe 6507 44bd
00000010: e912 f93c ee53 19be 8e35 14bd b56b 643d
00000020: 1e95 1abd caff 30be fdb2 c9bd 75c2 be3d
00000030: 0591 243d 72dd 683d 17ef 053e bf4f e73c
00000040: ab9b b33d 7c4f 90bd 01d4 e1bc d4d4 fa3d
00000050: 8436 923a dd74 773d 41cd 27bc 4e62 a1bd
00000060: b02e ac3d 8af3 a33e 708a 2e3e 65ab 283d
00000070: 2bac 3cbe c2d1 92bd bc04 8b3c d50b 0f3d
00000080: d16e f6bc f017 fbbc 8181 963d aa64 b3bd
00000090: 032c 90be d3bb 323e d333 0e3d 3a28 053e
000000a0: 1300 313c e727 e3bd c9be f53d f0f4 afbd
000000b0: 845c ffbd b15c 1ebe 33fc b8be 864e 46bd
000000c0: 3754 b13d f8af 183e 6c04 09be 872a c73e
000000d0: 0748 ee3d 1c36 cabd dccd dcbd 00e8 aabd
000000e0: f106 bdbd 0b29 7e3d 91c4 863d d00c 833e
000000f0: e860 693c 4ef3 d7bc ef7c 75be 6b84 45be
00000100: 0173 f1bc 249c a53d 6087 743d 5a9f d038
00000110: fa19 bbbd ba05 783a 977c cf3d 2b51 8bbd
00000120: d2e6 4b3d 21b7 e0bd a119 ab3c e4c5 183d
00000130: 8c4e 0dbe 2abf 8dbd 4aea adbd e426 ee3d
00000140: a90e da3d b963 143d 1bca 8c3d 2070 803e
00000150: 843a c03d 2762 6dbd cf37 f5bd b51b 093e
00000160: 0ceb 5abd a5f2 76bd 9692 1d3e bae7 1ebe
00000170: ccd4 9abd d0c9 193e d71c c23d 7f19 c3bc
00000180: 09bd 1c3d 64bf 093e e177 8fbc d318 68bd
00000190: 0ae4 263e 4ab3 44bc 297e 5a3d fbaf aabd
000001a0: 168c 5abd 74d1 a8bd c340 343d 4a12 bdbd
000001b0: a98a a2bd eff1 e43d dca8 6ebe 1213 c23d
000001c0: 6ac2 d2bd 43f1 903d 1dd9 e33c 781f cf3d
000001d0: db72 57bd 9533 e33b 281b 4cbc 8e03 b1bd
000001e0: d7eb eb3c 288a a0bd 681b a43d 0c23 a23d
000001f0: 3b69 aabd 5bb1 1cbd 6722 813d 2082 02bb
00000200: c7be 463e aba0 fc3c 17d7 6c3e ceb1 0a3d
00000210: 1eee 303e ca0e 98be 7baa 9f3e 8aca 55bd
00000220: d901 a5be 037d 09be d37d 3c3e 4e13 003d
00000230: b799 6e3e ec6b 45bd 1bfc 9ebc 20f5 e13d
00000240: e3e3 4a3d 3f83 1fbe b536 563c 8042 033f
00000250: 0e98 513d 4cd9 953e e264 633d de54 403e
00000260: 7501 f5ba e225 e53e 69c4 b9be 3587 d6be
00000270: db55 2bbe 5704 36bc e6ab 47be a769 fd3e
00000280: 1084 393d b1e5 493e dd45 463d 25f7 f73b
00000290: 3e83 d3bc b5e7 1d3e ff19 88bd 067b c43d
000002a0: 1716 9bbe f8fe 28be c82d fbbd 4d58 6bbe
000002b0: bd7e 5cba 84c0 82be be82 bf3e a1bd 2abe
000002c0: 3c27 36be 01db 5fbd d1cd 603e ebeb a3bc
000002d0: 40d3 7d3e a2e5 b1be 07d2 09bc facc 89be
000002e0: 9be5 5d3d 4f8b 7abe eb0d 11be 053f b1bd
000002f0: a9aa 54be 882f d4bd 11f7 7dbe 7471 b3be
00000300: 09e1 b93d 9939 efbc 6ea4 03be 1079 11be
00000310: 890f 0fbd 1a11 d9bc d32e 243e 25e1 293e
00000320: 95e1 513e 269f 003e c7db 073e 9268 aabd
00000330: 35db 663d 9f49 2d3d b77c bfbd d008 4a3d
00000340: 2c8a 1a3d bc07 cabd 20f1 0c3e 0597 f0bd
00000350: 821b a8bc c3dd aa3d ebd4 1fbe 217c cd3d
00000360: 54c8 a83c 37e3 413e 6436 41bd 0cac 2abe
00000370: 80a4 c83d d90d 073d f8a2 863b 1694 383d
00000380: 91f3 c5bc 4458 debd da06 373e cfcd b9bd
00000390: 1885 68bd e456 d23d 995a 173d 3ffc 60bd
000003a0: 2c76 d1bd 5a75 2cbe eb49 7bbd b092 873c
000003b0: d610 2a3c 8bb3 f73d 132b 283e 0e2d d6bc
000003c0: 5161 9bbd b622 eebd 8b73 703d c1b2 c53c
000003d0: 54ae 41bc 1733 083d bf7f bf3d 5690 d93b
000003e0: 3232 81bd dbf3 5abd c766 ac3a 0d4e c73d
000003f0: 7421 44bd c402 05be e853 b73d 07f4 553c
-0.08100569 0.060304668 -0.20181763 -0.047858614 0.030404525 -0.14973423 -0.036183886 0.05576678
-0.037739865 -0.17285076 -0.098485924 0.093144335 0.040177364 0.05685181 0.13079487 0.028236268
0.08769926 -0.070464104 -0.027566912 0.12247625 0.0011155163 0.060414184 -0.010241807 -0.07880078
0.084073424 0.32021743 0.17044997 0.04117908 -0.18425052 -0.071689144 0.016970031 0.034923393
-0.030082138 -0.030651063 0.0734892 -0.087594345 -0.28158578 0.17454462 0.034717392 0.13003626
0.01080324 -0.11091595 0.1199928 -0.0859164 -0.12468818 -0.15465046 -0.36129913 -0.04841473
0.08658641 0.14910877 -0.13380593 0.38899633 0.11634832 -0.09873602 -0.10781452 -0.08345032
-0.092298396 0.06205086 0.06580461 0.25595713 0.014244296 -0.026361134 -0.2397344 -0.19288795
-0.029473783 0.08086422 0.059699416 9.9478944e-05 -0.09135814 0.00094613025 0.101311855 -0.06802591
0.049780674 -0.10972429 0.020886244 0.0372981 -0.13799495 -0.06921227 -0.08491953 0.116285115
0.106473275 0.036227915 0.06874486 0.25085545 0.09386161 -0.057954933 -0.11973535 0.13389476
-0.053446814 -0.060289998 0.1538795 -0.15518084 -0.07560119 0.15018392 0.09478157 -0.023815868
0.038266215 0.13451916 -0.017513217 -0.0566643 0.16297927 -0.0120056365 0.053342972 -0.08334347
-0.053356253 -0.08243075 0.044007074 -0.09232004 -0.079366036 0.11178958 -0.23306602 0.094762936
-0.10290988 0.07077267 0.027813489 0.10113424 -0.05259977 0.0069336393 -0.012457646 -0.08643256
0.02879898 -0.07838851 0.0801304 0.07916841 -0.08320852 -0.038255077 0.0630539 -0.0019913986
0.19408713 0.030838331 0.23128925 0.033860974 0.17278334 -0.29698783 0.31184754 -0.05219511
-0.32227972 -0.13426594 0.18407373 0.03126841 0.23300825 -0.048198625 -0.019407323 0.11033082
0.049533736 -0.1557741 0.013074567 0.51273346 0.0511704 0.29267347 0.05551613 0.18782374
-0.0018692451 0.44755465 -0.36282662 -0.4190003 -0.1673197 -0.011109433 -0.19499168 0.4949467
0.04529196 0.19716527 0.04840647 0.0075673037 -0.025819417 0.1542042 -0.06645583 0.09593777
-0.3029029 -0.16503513 -0.122645915 -0.22982903 -0.00084112195 -0.25537503 0.37404436 -0.166739
-0.17788404 -0.054652218 0.21953513 -0.020009955 0.24787617 -0.34745508 -0.008411891 -0.26914197
0.054174047 -0.24467205 -0.14165466 -0.08654598 -0.20768227 -0.10360628 -0.2480128 -0.35047495
0.09076125 -0.02920227 -0.12855694 -0.14206338 -0.034926925 -0.026497412 0.16033487 0.16589792
0.20496209 0.1256071 0.13267432 -0.083207265 0.056361396 0.04230654 -0.09349959 0.04932481
0.037729427 -0.098647565 0.13763857 -0.11747555 -0.02052093 0.08343079 -0.15608566 0.10033441
0.020603336 0.18934332 -0.04717101 -0.16667193 0.09797001 0.03297219 0.004108783 0.0450631
-0.024163993 -0.10856679 0.17873707 -0.09072458 -0.056767553 0.10270479 0.036951635 -0.05492806
-0.102276176 -0.16841641 -0.06134979 0.016549438 0.010379991 0.12094792 0.16422682 -0.02614453
-0.07586921 -0.11627714 0.05870394 0.024133088 -0.011821348 0.033251848 0.093505375 0.0066395206
-0.06308402 -0.053455215 0.0013153189 0.09731684 -0.047883466 -0.12989336 0.08951551 0.013058669

encoder_lstm.bias_ih_l1 f4 [256]
00000000: e484 8c3c 01b7 0ebe 5bcb 393c ad42 26bc
00000010: f239 4fbd 9bae be3c 804c 7ebd 1261 1abe
00000020: 6553 00be 6801 853a 59d5 2ebe 589a 563d
00000030: d956 ca3d bb7f d43d b54d 5cbd 2b19 0d3e
00000040: 0166 20be d713 023d 0bc2 ae3c 1b1d 4c3e
00000050: e533 9abd 19ba 33bd e26c 9abd 066e 073e
00000060: 5a96 403c fa59 dbbe 9075 55bd 8b76 a9bc
00000070: cd7f 9e3d 705d d23d 71ab 933d 87b8 123e
00000080: 2ffa b4bd 876a 27bb a688 643d d8f2 7f3d
00000090: bddb 2b3b ce94 b93d caf1 99bd fbe9 1dbe
000000a0: a983 eaba 7c2b 803d a24c 063d be47 ecbd
000000b0: 5b56 a73d e567 05bd 6a25 223e ca4b 65bd
000000c0: 3c34 e33d 08ce e73c 0527 b43d f168 64bc
000000d0: dc9c 12be 8f8a 14be 25a0 3ebd e1bd 84bd
000000e0: 3048 8fbd 8a76 693d 9d83 4abe 4a38 f0bd
000000f0: 9dd3 8e3c 94b9 d8bc 71cd 823d 1580 4abe
00000100: 7be1 ccbd e4b0 f2bd 96a6 fcbd ac5d aabd
00000110: 9c67 8fbd 72bc 3cbe c2e2 f23b f42e 9e3d
00000120: 4ec6 e03d 3de9 43bd c5e8 02be 7be3 09bd
00000130: ef63 b8bd 61bd d3bd 7d3b 2c3b 2432 91bc
00000140: e476 e9bd 2d77 423b 938a a9bc 933b 07be
00000150: e3e3 953d 07da 923c e06b b3bd e9d7 7fbd
00000160: 2d15 f6bd 7f93 f5bd 7dca cdbe 231e bbbd
00000170: 804e 4cbe be1a 853c 35da 7d3c 734b d9bc
00000180: f66a c73d ab1a 43bd 4846 293d ac4d 01bd
00000190: c085 a8bd 392a 0dbe 743c f43c 88df 8b3d
000001a0: 0862 7e3a 6ec0 c1bd 5079 a8bc aee3 d8bb
000001b0: 173d 273c e96a 6abe 5dd8 33be 7827 f5bd
000001c0: f0da 4ebd 7e12 2abe c010 183e d85a 143d
000001d0: 9451 9fbd 4eee 783d e9a0 a33a 0a9b 2abe
000001e0: 377f a2bd ce0e ccbd cf02 69bd e216 6abd
000001f0: 2f6e a33d 0e5b 68bd 3b62 04be d747 933d
00000200: 799a ef3c 4263 763b 2d83 6ebd 46a1 0d3d
00000210: 80f8 8d3d 554e 05ba 336a c63c 1e58 cf3d
00000220: eb91 c93c d7ee 28bd fea4 eebc ea93 5f3d
00000230: 71cc 9ebd 7a56 1b3d 672d 48bd e208 533d
00000240: a3e6 2a3d 56f8 933d 58a2 84bc 4ee3 2fbd
00000250: 4bc9 143d 99cb 6cbd 29e2 1a3d df5b f53c
00000260: 36cc edbc 726a d03d 5320 ecbd ad7f c03d
00000270: a9e2 373d 4ec4 7bbd b419 cf3d 5c06 a6bc
00000280: b800 a4bd 083c 6bbc 5425 093c 7cdb 88bd
00000290: fb46 c83c 8650 9a3d 394f 7fbd 70ed 4a3d
000002a0: 4b3c 9d3c 7299 ee3d 4e14 8e3d 099f febc
000002b0: e7d3 75bd bc78 edbd ac05 44bd 25d6 053c
000002c0: 3df9 8c3d 1a68 c43d 4b4c 433d c4d1 43bd
000002d0: 1257 3f3c 1a7f 393d 33eb cd3d e4a1 883d
000002e0: d332 a5bd e747 80bd 70d2 95bc 565e fbbc
000002f0: 3473 01be c75b d23d da46 d43d 3fcf f53d
00000300: 2178 ed3c 0e74 c13d cba9 773c 39ee a0bd
00000310: 6c2b a03b 7d67 bb3c 5686 3b3c c45b 23bd
00000320: a6b4 28bd 2282 a0bd 2435 83bd cc7d 663c
00000330: f0c6 3d3d 9d71 0ebe 3f9f 1cbd 5f1e 323c
00000340: 73bd 233d 19de 8f3d c81b ecbd ccd4 683e
00000350: bebd 333c 93c9 90bd 24e2 9dbd 1590 1a3d
00000360: bc0d 1d3d 6a26 d8be 76bc 7f3b 8bde 823c
00000370: d31b 94bd e2ff 2ebd eda7 d03c d3aa b83d
00000380: b3aa 85bc 5db6 adbd 1ccd a3bd 75c2 273c
00000390: b98a 1b3d 1516 41bd 0ee8 fb3d 7537 46bc
000003a0: e090 0bbe cf15 31bc 7252 59bd a6e1 59bd
000003b0: b627 c3bc bf35 213d fab8 5dbd 75c9 7f3d
000003c0: facb 983d ba34 d5bd 1a36 c03c 474f d13c
000003d0: aa83 f3bc cebf bebc 6fb4 153d bdee f3bc
000003e0: 78ab 07be 0c4a 0f3e 56a7 1b3d 5ed5 6a3d
000003f0: cdc4 9abc 6b67 12bd d4d4 003e 525a 43bd
0.017153211 -0.13936998 0.011339988 -0.010147733 -0.05059237 0.023276618 -0.062084675 -0.15076092
-0.12531812 0.0010147514 -0.17073573 0.052393287 0.09879846 0.10375925 -0.053785045 0.13779132
-0.15663911 0.031757202 0.021332761 0.19932978 -0.07529429 -0.04387865 -0.07540299 0.13225564
0.011754597 -0.42842084 -0.05211407 -0.020686409 0.0773922 0.10271728 0.07210434 0.14328204
-0.08836781 -0.0025545673 0.05579438 0.062487453 0.0026223504 0.09061585 -0.07516821 -0.15421288
-0.0017892021 0.06258294 0.032787926 -0.11537121 0.08170768 -0.032569785 0.15834585 -0.05598048
0.11093947 0.028296486 0.08796505 -0.013941036 -0.1431765 -0.14505981 -0.046539444 -0.06481529
-0.069961905 0.056997813 -0.19776769 -0.11729486 0.01743489 -0.026455678 0.06386841 -0.19775422
-0.100039445 -0.118501455 -0.12336461 -0.08318648 -0.07002184 -0.18431261 0.0074122855 0.07723799
0.109753236 -0.047829855 -0.12784107 -0.033664208 -0.09003436 -0.103388555 0.0026280575 -0.017724104
-0.1139963 0.0029673085 -0.02069596 -0.1320632 0.073188566 0.01792623 -0.0876081 -0.062461767
-0.12015758 -0.11991023 -0.4019355 -0.091366075 -0.1995182 0.016248103 0.015493919 -0.026525235
0.09737198 -0.047632854 0.04132679 -0.031568214 -0.08228636 -0.13785638 0.029813983 0.068297446
0.0009703939 -0.09460531 -0.020565659 -0.0066189384 0.010207436 -0.22892345 -0.17563005 -0.11970419
-0.050501764 -0.16608617 0.1485014 0.036219448 -0.07779232 0.06077414 0.0012483868 -0.16660705
-0.079344206 -0.09963761 -0.056887444 -0.05715073 0.0798 -0.05672746 -0.12928097 0.07191437
0.029248463 0.0037595783 -0.058230568 0.03457763 0.06932163 -0.000508522 0.024220562 0.10124229
0.024605712 -0.0412434 -0.029131409 0.05458442 -0.07753838 0.037924267 -0.048871424 0.051522143
0.04172386 0.07225101 -0.016190693 -0.042941384 0.03632478 -0.057811353 0.03781334 0.029951034
-0.02902804 0.10176553 -0.11529603 0.09399352 0.044893894 -0.061466508 0.10112324 -0.020266704
-0.080079496 -0.014357574 0.008370716 -0.06682488 0.024447909 0.0753489 -0.062331412 0.049542844
0.019193789 0.11650361 0.069374666 -0.031081693 -0.06001654 -0.11595294 -0.04785697 0.008168732
0.06883476 0.09590168 0.04768018 -0.04780747 0.011678474 0.04528723 0.10054626 0.06671503
-0.080663346 -0.06263714 -0.018288821 -0.030684631 -0.12641603 0.102714114 0.10365076 0.1200242
0.028987946 0.09445964 0.015116165 -0.07857937 0.004887989 0.022876495 0.011445602 -0.039882436
-0.041187905 -0.07837321 -0.0640662 0.014068078 0.0463323 -0.13910528 -0.038237806 0.010871499
0.039975595 0.07024784 -0.11528736 0.22737426 0.010970531 -0.07069697 -0.077091485 0.037735064
0.038343176 -0.42216808 0.0039022244 0.015975257 -0.072318695 -0.042724498 0.025470698 0.09016957
-0.016316747 -0.08482049 -0.07998106 0.010239233 0.037974093 -0.0471402 0.1230012 -0.012098183
-0.13629484 -0.010808422 -0.05305714 -0.05319371 -0.023822647 0.039357897 -0.054131486 0.062447984
0.074607804 -0.104104474 0.023463298 0.025550498 -0.029725868 -0.023284819 0.036549028 -0.029776925
-0.13249004 0.1399309 0.03800138 0.05733239 -0.01889267 -0.03574316 0.12581187 -0.047693558

encoder_lstm.bias_hh_l1 f4 [256]
00000000: 7759 16bd 2097 57bd 58e2 c1bd 7929 19be
00000010: 5cbe 7d3b 30b9 57bc f6a5 19bd 1511 a93d
00000020: 6deb 753c 5fc9 b4bd 924c 18be c0e5 adbc
00000030: d2e2 f53d 5435 0bbe c2e8 e33c dd4d 3bbb
00000040: 643f 553b 34fb 9cbd dd3e 903d ad3b 9a3e
00000050: 3264 d6bd 7a86 cbbd 635c 913b c343 053e
00000060: fb6d fc3c 97ad e2be 62fc be3d fa11 18be
00000070: de97 0b3e 3b16 68bd f45d 94bc 0bed 173d
00000080: a7b3 93bd d037 80bd 6fac 913a 320b 8ebc
00000090: f364 85b9 306d cc3d 91e3 25bc 3c6c e7bd
000000a0: 644c 12be d209 ae3d c722 04be 0ad2 2b3d
000000b0: a76f cebd d1f5 26bc 4fb3 973d 106b a83d
000000c0: 4e30 f7bd e85c 503d 4b3d f3bd a6fe 34bd
000000d0: b47b 68bd 94fe 00be b13f 16bd c7fc 92bd
000000e0: c229 06be e321 bd3c 9d75 2cbe 8af2 9fbd
000000f0: 7728 05bd d8e7 1e3d d449 543d 28d6 8dbc
00000100: 673d c23d 16d5 cdbd da35 abbd bdb0 41be
00000110: 785f ab3d 36f4 c7bd 8b81 633d 6be4 8fbb
00000120: fb8f 093e ff64 31bd dd0a 92bd 04d2 783d
00000130: cb8c 023c 7e0b de3b dfd5 873a 4ffe e5bd
00000140: 44cd 8d3c 8de4 c9bd ab4d 3a3d fe37 39bd
00000150: 801d f83d 6201 02be 84eb 903d 3029 8e3d
00000160: 2580 6cbc 064f 28be 23be 91be edfd 953b
00000170: a4e4 6abe a720 3e3c 4562 b7bc b60f 1fbe
00000180: 9e39 b53d 694e 21bd 7291 23bc 08d3 1c3d
00000190: ade8 6fbc def9 02be 6de1 303c 3218 14be
000001a0: e9d2 23be b11e 143d e247 92bd 5898 4ebd
000001b0: 1f92 eabb 83df a9bd 5778 15be 3801 a9bd
000001c0: a33e 913c 0283 19be 6e94 a2bd de44 1dbd
000001d0: 6699 463d a6ed 783d 058a 08be 3d91 193d
000001e0: 10c6 f7bd 516a 0abe 08c9 5b3d fb17 a2bd
000001f0: dd1c 9ebd 41f9 f3bc b9e5 febd 95e9 c33d
00000200: 28c8 d5bc 566b ccbd 0c69 0bbd 0639 dabc
00000210: a7ed 093c 89fe 53bc 875e cbbd ac31 4cbd
00000220: 30c2 60bd b8c2 dabc ce05 d3bc 6347 a0bc
00000230: 6353 f0bc a117 f7bd bbe4 243d 00f7 113d
00000240: f338 863c ebc2 f73c 63b8 46bc a78c 103d
00000250: e435 d1bd 4a52 903d 7115 b73d c6de 5cbc
00000260: 682c a43d 046d 5fbd 2a6a dd3c c80c 65bd
00000270: 6202 8ebd 6c25 50bd f0ba ad3d 4c1e a0bc
00000280: 86ad a0bd 0ac4 023d 9cd7 9abd 71f5 19bd
00000290: 7cd8 66bd e4e8 83bd 0131 15bd 96aa 013d
000002a0: a64f 7bbd b747 e63c 02e1 613d 5a01 683c
000002b0: a5ec d53d 20cf e23d bc24 d63c 4e50 293d
000002c0: 0b1d e73d 2811 b9bd 482e b0bd 4cd7 5f3d
000002d0: 3262 303d ccb7 6f3c d4f0 d33c 52dc b0bd
000002e0: efd6 113d 1512 7abc 54d6 e33b afca b33d
000002f0: f381 6c3d 7d13 c23b d47b b3bb fc92 83bd
00000300: d605 0a3d 089a ba3d c5f9 31bd d49a 10be
00000310: 040d 963d 58eb f7bd 85b7 b53d 869f 8dbc
00000320: 294e 8c3d 8f59 693c b272 cfbc 98f7 2cbe
00000330: 98a8 e03c 40b5 923d 9c47 8fbd 2576 1c3e
00000340: e15e 84bd 89db 99bd d49b ccbd 9257 a33d
00000350: 0e2e 9a3c 1ea3 6ebd acb1 9c3c 9e71 11bc
00000360: 72ab 323d 74c4 92be 1bc4 fabd 0c16 cbbd
00000370: 9d39 ea3d a228 42bd 1a14 e8bd 514e 2abd
00000380: 88a4 1fbe 5f01 eebd d5e7 15bd c361 3c3d
00000390: f744 003c 147a 69bc 92aa 96bb 562e e1bd
000003a0: 8c76 d03c 1312 983d eec3 5a3b a908 9b3d
000003b0: a538 bf3d 9ea7 ba3d 8ce2 7fbd efc1 963d
000003c0: 39a3 003c f0fb 57bd 4e8e 04bc dc93 183b
000003d0: 5fb6 a7bd bba4 573d 5d5b 06bd 6f82 18bc
000003e0: 44e6 1ebe d686 8b3d 8936 11be 5473 afbc
000003f0: e3c5 013e 4239 c33c 3708 d53d 7acc 7fbd
-0.036706414 -0.05263436 -0.09467 -0.14957227 0.00387182 -0.013166711 -0.03751179 0.08255211
0.015009743 -0.08827471 -0.1487296 -0.021227717 0.12006153 -0.13594562 0.027820949 -0.0028580346
0.0032539004 -0.07665101 0.0704324 0.30123654 -0.104683295 -0.09937759 0.004436062 0.1301413
0.030814162 -0.44273064 0.09325482 -0.14850608 0.13632151 -0.056661826 -0.018111207 0.037091296
-0.07212 -0.062606454 0.0011114011 -0.017339323 -0.0002544295 0.09981763 -0.010125057 -0.11299941
-0.14286953 0.08497967 -0.12903892 0.041948356 -0.1007989 -0.010190443 0.07407247 0.082235456
-0.1206976 0.050869852 -0.11876925 -0.044188164 -0.056758597 -0.12597114 -0.036681835 -0.0717712
-0.13101867 0.023087448 -0.16841741 -0.078099325 -0.032509293 0.038795322 0.05182822 -0.017314032
0.09484368 -0.100504085 -0.08359881 -0.18915077 0.083678186 -0.097633764 0.055543464 -0.004391243
0.1343383 -0.043309208 -0.07130978 0.06074716 0.007968138 0.0067762723 0.0010363421 -0.11230146
0.017309792 -0.09858046 0.045484226 -0.045219414 0.12115002 -0.1269584 0.07076171 0.0694145
-0.014434849 -0.16436395 -0.28465375 0.0045773895 -0.22938782 0.011604465 -0.022385726 -0.15533337
0.0884888 -0.03938142 -0.009983407 0.038287193 -0.014642877 -0.1279063 0.010795933 -0.14462355
-0.15998425 0.036162082 -0.07142617 -0.050438255 -0.0071585323 -0.082945846 -0.14596687 -0.082521856
0.017730063 -0.14991382 -0.07938467 -0.038395755 0.048486136 0.060773514 -0.133339 0.037492026
-0.12098324 -0.13517119 0.053658515 -0.0791473 -0.07720349 -0.02978194 -0.1244616 0.095660366
-0.026096418 -0.0998141 -0.034035727 -0.026638519 0.008418477 -0.012939104 -0.09930139 -0.04985206
-0.05487269 -0.026704177 -0.025759604 -0.01956529 -0.029336637 -0.12065054 0.040257197 0.03563595
0.016384577 0.030244311 -0.012128922 0.035290387 -0.10215357 0.070469454 0.089396365 -0.013480848
0.08016282 -0.054547325 0.027028162 -0.055920392 -0.06934048 -0.05081694 0.08482921 -0.019545697
-0.07845597 0.03192524 -0.075606555 -0.037587587 -0.0563588 -0.06440905 -0.036423687 0.031656824
-0.061355256 0.028110368 0.055146225 0.0141604785 0.10445527 0.11074662 0.026140563 0.04133635
0.112848364 -0.090364754 -0.086025774 0.054648682 0.043062396 0.014631223 0.025871672 -0.08635773
0.035605367 -0.0152631 0.00695304 0.08778893 0.057741117 0.0059227333 -0.005477408 -0.064245194
0.03369697 0.091114104 -0.04345109 -0.14121562 0.07326701 -0.12105435 0.08872894 -0.01728798
0.06850845 0.014242544 -0.025323246 -0.16891325 0.027424142 0.07163477 -0.0699608 0.15279444
-0.06463409 -0.07512576 -0.09990659 0.07975687 0.018820789 -0.05826103 0.01912769 -0.008877186
0.043620534 -0.28665507 -0.122444354 -0.099163145 0.1143677 -0.04740203 -0.11331959 -0.041578595
-0.15590107 -0.11621355 -0.036598045 0.04599167 0.0078289425 -0.014250297 -0.0045979703 -0.10995166
0.025447153 0.074253224 0.0033380943 0.07570011 0.09336976 0.09114002 -0.06247191 0.07361209
0.007851415 -0.0527305 -0.008090569 0.002328149 -0.081890814 0.052647334 -0.032801975 -0.009308442
-0.15517527 0.06812827 -0.1418096 -0.021417297 0.12673144 0.023831014 0.104019575 -0.062450863
